checkpoint_critic.pth (torch_old, 542602 bytes, 5 tensors)

fcs1.weight f4 [400, 33]
000000 6a 15 d8 bd 79 23 2e bc b9 83 1f bf 46 c9 9c 3e
       -0.105509594 -0.0106285745 -0.6231037 0.3062231
000010 02 ab 0c 3f 00 00 0b 3e 8b ba f4 be 98 74 97 3d
       0.5494844 0.13574219 -0.4779857 0.07395285
000020 80 3b c1 3e 61 66 a2 3d 26 49 f2 bd 0b 95 8f bd
       0.37740707 0.079296835 -0.11830358 -0.070108496
000030 43 a8 13 be d7 c8 5d 3e 7a 61 c3 bd f2 c8 08 3f
       -0.14419656 0.21658646 -0.095400766 0.5343162
000040 35 17 fc be e8 ac a2 be 13 8e 94 bd b8 5b ee 3d
       -0.49236456 -0.31772542 -0.07253661 0.11638588
000050 78 1a 17 bd eb 51 e4 bd d4 d6 a7 3e 34 cc 7b 3e
       -0.036890477 -0.11148437 0.32781088 0.24589616
000060 e2 31 02 be c6 60 f7 3d b1 b9 83 be 86 40 3c 3f
       -0.12714341 0.12079005 -0.2572761 0.73535955
000070 39 e0 09 be 6b ee 1a bd 43 b5 39 bf 5d 5a 0f bd
       -0.1346444 -0.03782503 -0.7254221 -0.034998287
000080 10 90 07 bf 21 06 c8 3d 32 8e 85 be 12 ea 44 be
       -0.52954197 0.09766794 -0.2608505 -0.19229916
000090 cd 65 cf 3b de ad 87 be e6 29 7f 3f e9 8f 1f be
       0.0063292743 -0.26499838 0.99673307 -0.15582241
0000a0 d4 13 14 bd e1 26 87 3e 2c ed 96 be 85 bb 56 bd
       -0.036151722 0.2639685 -0.29477823 -0.052424926
0000b0 02 aa 46 3d 33 9a c4 bd ac a1 a5 be b5 8f 91 3c
       0.048501976 -0.09599724 -0.32349908 0.01776872
0000c0 4d e9 8f be 9e db 85 3e b8 4e b4 3c 8d 2d 7d be
       -0.28107682 0.26144117 0.022010192 -0.24724407
0000d0 72 aa c3 bd 68 b5 d6 bc 67 c9 dd bd ed 72 ff 3d
       -0.09553994 -0.026209548 -0.1082943 0.12473092
0000e0 9a 8a 8a bd eb 24 ff bd f8 d9 16 be 90 9b 6c 3e
       -0.067647174 -0.124582134 -0.14731586 0.23106217
0000f0 80 64 28 3f 05 59 a9 3e eb 42 15 bd ef 7c 25 bf
       0.6577835 0.3307573 -0.03644077 -0.6464376
000100 18 5d 9d bb a7 9c 3d bf e2 3d c2 be 76 6e 81 3f
       -0.0048023574 -0.7406716 -0.37937838 1.0111835
000110 c9 c0 a8 bd e2 d0 07 bd e0 7b 28 3d e1 fa b3 be
       -0.08239896 -0.03315819 0.04113376 -0.35152343
000120 3e 96 0a 3f b1 1b 1d 3d 3e 26 c7 3e ca 53 3a 3e
       0.541355 0.038356487 0.38896364 0.18196025
000130 a6 6c 9b be 7a 7d 53 3e 11 af bd bd 4c 7e 76 3e
       -0.3035633 0.20653334 -0.09261907 0.24071616
000140 ba 6a d7 bd 10 e4 18 bd fa fa aa 3b fb 7d 1f 3e
       -0.10518403 -0.037326872 0.005217907 0.15575401
000150 fa 62 a8 be 80 00 4d bc b6 6c 84 bd 28 0e 94 bd
       -0.32888013 -0.012512326 -0.064660475 -0.072292626
000160 50 d0 94 3c c4 0f 41 3e a0 eb 61 be ea 2d 70 3d
       0.018165737 0.1885367 -0.2206254 0.058637537
000170 db 74 15 be ba ed d7 3d 15 48 90 bd b0 50 d0 3b
       -0.14595358 0.105433896 -0.070449986 0.006357275
000180 c7 15 39 bd 93 aa 1d 3d a5 d9 27 be e0 12 1f be
       -0.045186784 0.03849275 -0.16391619 -0.15534544
000190 7b 71 d3 3e 5f a0 a4 3e 49 4a 54 3e 2c ac d7 bd
       0.41297516 0.32153603 0.20731463 -0.10530886
0001a0 bd 0f 57 be a0 24 5b 3e 13 c7 d7 3d be 60 46 3e
       -0.21002097 0.2140069 0.10536017 0.19372842
0001b0 5f 9d c6 3e ca 0f 82 be 21 c0 6b 3e 2c 64 25 be
       0.3879194 -0.2540267 0.2302251 -0.16151494
0001c0 8a ad 28 bd 69 1a 47 3e 68 96 d0 3e 33 0e 5b be
       -0.041181125 0.19443668 0.4073975 -0.21392135
0001d0 3c 0e d5 bd 54 92 0d 3e 06 c7 83 3d 40 ac 6d bc
       -0.104031056 0.13825351 0.06434445 -0.0145064
0001e0 0a c1 22 bd 23 d9 de bc e9 7e 8e 3c f1 bd 68 3e
       -0.039734878 -0.027203148 0.0173945 0.22728707
0001f0 e9 f5 70 3e e3 f1 a0 39 fc d3 16 3f 54 15 d6 be
       0.23531307 0.00030697798 0.5891721 -0.41813147
000200 41 c5 0d 3d e0 b1 19 bf 12 9a ac 3c 35 94 49 bf
       0.034611944 -0.6003704 0.02106956 -0.7874177
000210 8c 88 07 3d 3b 74 35 3a 34 89 89 3d 60 e8 48 be
       0.033089206 0.0006921922 0.067156225 -0.19619894
000220 89 52 e3 bd 4a f4 31 be c7 50 40 3e 45 db 0b 3c
       -0.11099727 -0.17378345 0.18780814 0.008536165
000230 de 34 7b 3e cf bf c1 bd 98 b0 df 3d 4f d3 34 3d
       0.24531886 -0.09460413 0.109223545 0.044146832
000240 a9 82 9e bb 2a 50 16 be b2 25 b4 3d cd f0 e1 bd
       -0.0048373532 -0.14679018 0.08796252 -0.11032257
000250 57 29 a0 3d 44 7f 90 bd ec e1 85 bc 0e bd 39 bd
       0.07820385 -0.07055524 -0.01634308 -0.045346312
000260 12 5f 72 3c 2e b7 ab bc 58 a2 9d bd 62 60 03 3e
       0.014793174 -0.02096137 -0.0769698 0.12829736
000270 85 12 8a 3b 92 f6 81 bd 2f 9f bc 3e e6 45 ed bd
       0.0042136335 -0.06345858 0.36840197 -0.11585598
000280 24 65 dc bd c2 3e 46 bd 9c 21 12 3e 80 95 58 3a
       -0.107614785 -0.048399694 0.14270633 0.00082620233
000290 05 da 2b c0 54 d5 8b 3e d0 42 93 be 30 c5 65 3f
       -2.6851819 0.27311194 -0.2876191 0.8975401
0002a0 85 61 96 be fe cc ea be e3 9d 84 be 7e fe 9d 3d
       -0.29371276 -0.45859522 -0.25901708 0.07714556
0002b0 ef 3a ae bb 31 44 95 3e 7d 22 25 3e c7 89 7a 3c
       -0.005317084 0.29153588 0.16126437 0.015291638
0002c0 dc 94 0a bd 53 44 39 3e 4a 1d 8c be 77 b4 7c 3e
       -0.03383337 0.1809247 -0.27366096 0.24678217
0002d0 fd 8e 8e be d0 7a 84 3c 1c 59 ac bd 3e 2c 01 bd
       -0.27843466 0.016171843 -0.08415434 -0.031536333
0002e0 5e bd 1f be 50 a0 25 3d 6c 33 38 bd a1 14 9b 3d
       -0.15599582 0.04043609 -0.044970915 0.07572294
0002f0 55 d1 af bd cb 5e 6c 3d c8 35 99 bc 9e 24 36 bd
       -0.08584849 0.05770759 -0.018702403 -0.044468515
000300 bd 89 0e 3f a5 b6 47 be 40 af 84 bb 24 c7 0a bf
       0.5567892 -0.19503267 -0.0040492117 -0.54210114
000310 6a 06 e9 bc 63 e5 33 3e 44 cf c3 3e 38 99 86 3e
       -0.028445441 0.17567973 0.3824407 0.26288772
000320 b4 0a 60 bf f0 0c ee bd 93 53 8e 3e bf c6 bf be
       -0.8751633 -0.116235614 0.27798137 -0.3745632
000330 ab b6 86 be ae 39 b7 3d 82 eb 09 bf b7 66 87 3d
       -0.2631124 0.089465484 -0.5387498 0.06611388
000340 77 01 38 be 57 64 15 3e ff ac 0d be 86 cb 85 be
       -0.17969309 0.14589058 -0.13835524 -0.2613184
000350 8c 7f c6 3e e5 f3 82 3e 29 64 60 3e 7d 8a 42 3f
       0.38769186 0.25576702 0.21913208 0.75992566
000360 14 51 db be a8 b6 e2 be 7c 97 16 be ea fb fc bd
       -0.42835295 -0.4427998 -0.14706224 -0.12352736
000370 3c d7 62 3c 3d 39 29 be f2 c8 c3 3d 39 03 1b be
       0.013845261 -0.16525741 0.09559812 -0.15137948
000380 f6 4d ae bd fb 40 19 3f a7 f1 82 3e a8 8a 36 bd
       -0.085109636 0.5986478 0.2557499 -0.044565827
000390 74 13 0a bf d0 1c 2b 3b dd a8 88 3e 3b 17 3f bd
       -0.53935933 0.0026109703 0.26691332 -0.046653014
0003a0 d1 f3 a9 3d 46 d7 1a be 6e 19 62 be 78 f9 14 bc
       0.082984574 -0.15121183 -0.22080013 -0.009092681
0003b0 d4 1a 98 be 17 82 b5 bd 59 01 e4 bc 61 f8 04 be
       -0.29707968 -0.08862703 -0.027832674 -0.12985374
0003c0 d6 64 97 bc aa a3 7d bd de 0e 19 3d 29 18 d7 bc
       -0.0184807 -0.06192366 0.037367694 -0.026256638
0003d0 3a fc e5 bc 4b e9 e1 bd f0 20 da 3d c3 fb 53 be
       -0.028074373 -0.11030825 0.106508136 -0.20701508
0003e0 94 ab 3d bc b5 74 f9 bc bd 1d de 3d d6 73 2f 3c
       -0.011576552 -0.030451158 0.10845516 0.01070877
0003f0 0a 78 57 3b 85 3c ab 3d 63 b9 95 bb 6d f5 ce bc
       0.0032877945 0.083611526 -0.004569219 -0.025263513

fcs1.bias f4 [400]
000000 10 77 4c bf 93 64 55 bf 81 1d 71 3d 34 14 1d bf
       -0.79869175 -0.8335659 0.058866028 -0.6135895
000010 f0 65 6a 3c db 8d f1 be f4 c1 e9 be 9b eb 3d bf
       0.01430653 -0.4717854 -0.45655787 -0.7418763
000020 c4 72 72 bf 16 76 02 38 a8 41 52 be bb 24 19 bf
       -0.9470637 3.110439e-05 -0.20532858 -0.5982167
000030 67 af da be 0d 9f 08 bf 5f cf 35 bf 3e b8 37 bf
       -0.42711946 -0.5336769 -0.7101955 -0.71765506
000040 06 e3 a8 be 23 12 54 bf f6 a9 ad be 14 10 88 bd
       -0.32985705 -0.82840174 -0.33918732 -0.06643692
000050 fe b4 03 bf a4 e2 37 bf 1c f0 2a bf d1 3c 74 bf
       -0.5144805 -0.718302 -0.6677263 -0.954053
000060 d9 98 d1 be e7 a9 bc be c4 e0 8f 3e 99 d0 ef be
       -0.40936926 -0.36848375 0.2810117 -0.46838835
000070 e9 28 2f bf cd ff 0d bf a1 98 5b bf 8d 07 39 bf
       -0.684218 -0.55468446 -0.8577977 -0.72277147
000080 7f cf 24 be 43 b3 5b be f3 7e 36 bf 8d 85 b9 be
       -0.16094778 -0.21455102 -0.7128746 -0.36234704
000090 a2 12 2a bf 51 43 e4 be 9f 9a 05 bf bd e8 c2 be
       -0.6643468 -0.44582608 -0.5218906 -0.3806819
0000a0 7f 3e 0a bf fe 64 db be d5 72 b6 be 28 25 e9 be
       -0.5400161 -0.42850488 -0.35634485 -0.4553616
0000b0 74 3a 7a be 7b 9e 53 bf a4 05 1c bd c3 ff ed be
       -0.2443636 -0.82663697 -0.038091317 -0.46484193
0000c0 29 f7 67 bf 56 9a 5d bf 7e 9f 3e bf fd 54 50 bf
       -0.9061151 -0.8656362 -0.74462116 -0.8137968
0000d0 3d 80 8f bf 50 a5 88 bf 8c 20 42 bf 5c 00 5c bf
       -1.121101 -1.0675449 -0.7583091 -0.8593805
0000e0 8a 80 32 bf d0 8b 08 bf 9f 61 b7 be e6 c1 0f bf
       -0.69727385 -0.53338337 -0.35816666 -0.5615524
0000f0 7b d8 a2 be 9e 4c 52 bf ce ff f6 be a3 e7 e2 be
       -0.31805786 -0.8214816 -0.48242038 -0.4431735
000100 6a 90 c3 be e7 79 fc be f1 d5 41 bf 33 60 10 bf
       -0.38196117 -0.49311754 -0.75717074 -0.5639679
000110 59 65 ba be 3b 48 d3 be 0a c8 74 bf 7a cc 3a bf
       -0.36405447 -0.41266045 -0.95617735 -0.72968256
000120 5a 63 1b bf 69 fb 18 bf 56 58 29 bf be 5a 30 bf
       -0.60698473 -0.5975862 -0.66150415 -0.6888846
000130 b9 a2 38 bf e8 7a 20 bf a2 55 45 bf 2f 6e 97 be
       -0.72123295 -0.6268754 -0.7708379 -0.2957625
000140 99 e7 4c bf 8b d2 1c bf b8 6e 1d bf 2c 96 e4 be
       -0.8004089 -0.61258763 -0.6149707 -0.44645822
000150 8f f5 8e be 4c 4b 57 bf f8 7e 42 bf 1d f5 86 be
       -0.2792172 -0.8409927 -0.7597499 -0.26358882
000160 55 9c 44 bf 70 3b b7 be ad 09 a3 3d 78 28 4d bf
       -0.76801044 -0.35787535 0.0796083 -0.80139875
000170 cf d7 27 bf 5a 39 c3 be ba 0e 8d be 38 bb 46 be
       -0.6556367 -0.38129693 -0.27550298 -0.19407356
000180 d6 3e 05 bf fb 29 e6 be 34 f1 a5 3e 4e 0d 4a be
       -0.52049005 -0.44953904 0.32410586 -0.19731638
000190 14 21 4e bf 7c 67 03 bf ca ac 78 be ed e6 73 bf
       -0.80519223 -0.5132978 -0.24284664 -0.9527424
0001a0 5b 36 5b bd 67 7d 0f bf ec c4 39 bf df 2c fe be
       -0.053518634 -0.56050724 -0.72566104 -0.4964361
0001b0 01 a0 4b bf 92 23 1d bf 56 d8 7c bf 58 e9 75 bf
       -0.7954102 -0.613824 -0.987676 -0.9605918
0001c0 3f 6d c5 3d af 00 17 bf 0c 5f bb be 9c 2c a6 be
       0.09639978 -0.5898542 -0.36595953 -0.3245591
0001d0 4b b9 ab be d1 b0 c0 be 53 62 67 be ac 10 23 bf
       -0.33539805 -0.376349 -0.22596101 -0.63697314
0001e0 1b 5a d5 be 5d 5c 04 bf 4c 50 52 bf 5a 0c 9b be
       -0.41670308 -0.51703435 -0.82153773 -0.3028286
0001f0 60 26 08 bf ef 16 55 bf 22 57 62 bf f6 bc 59 bf
       -0.53183556 -0.8323812 -0.88414204 -0.85053957
000200 d2 ae fb be 17 e4 b0 be 2c 98 e5 be 15 94 1f bf
       -0.49156815 -0.3454902 -0.4484266 -0.6233533
000210 86 ae 8e bf 5e 62 08 bf 35 e7 81 be 4f 39 9b be
       -1.114701 -0.53275096 -0.2537171 -0.3031716
000220 0e 52 15 bf 3c 2c 8c be 2b 83 77 bf 62 e1 3d bf
       -0.5832833 -0.27377498 -0.9668452 -0.7417203
000230 11 36 4e bf 32 7d 49 bf 7e 47 84 bf 77 4f a9 be
       -0.8055125 -0.7870666 -1.0334318 -0.3306844
000240 a8 3a 8c bf 0b 6d 37 bf 16 ae 0d bf 6a 45 57 bf
       -1.09554 -0.7165076 -0.5534376 -0.8409029
000250 a9 e8 09 bf c9 c7 4b be da 0a 38 bf 9c fb b4 be
       -0.53870636 -0.1990043 -0.7189156 -0.35348213
000260 c7 db e2 be 5a 11 32 bf 4d b0 8a bf 0f a9 00 bf
       -0.44308302 -0.69557726 -1.0835053 -0.5025796
000270 06 ec 0e bf 97 6b 18 bf cf c7 60 bf b0 07 35 bf
       -0.55828893 -0.5953917 -0.87804884 -0.70714855
000280 6d a3 23 bf 37 fc 45 be cf 82 8f bf aa 99 3e be
       -0.6392124 -0.19334494 -1.1211795 -0.18613306
000290 3c 4a fb be 97 82 33 bf 9a 69 7c bf 6b ff d7 be
       -0.49080074 -0.7012114 -0.98598635 -0.42187056
0002a0 59 29 2f bf 7f 54 04 bf c3 70 f6 be d8 78 31 bf
       -0.68422467 -0.5169143 -0.48132905 -0.6932502
0002b0 69 96 15 bf 0d 01 43 be 2f dd 41 bf fe 3a 5a be
       -0.5843263 -0.1904337 -0.75728124 -0.21311566
0002c0 4e 43 59 3c 88 6e 50 bf 40 8b 0c bf 8c d1 22 bf
       0.013260676 -0.8141866 -0.5489998 -0.63600993
0002d0 92 a6 f8 be 57 97 44 bf a3 9a e9 be 44 46 51 bf
       -0.48564583 -0.76793426 -0.4562579 -0.8174784
0002e0 93 6c f6 be fd f6 69 bf b0 dc 27 bf 26 50 10 bf
       -0.4812971 -0.913925 -0.6557112 -0.56372297
0002f0 db 98 51 bf c8 72 fa bd fa 25 07 bf 46 14 fc be
       -0.81873864 -0.12228924 -0.5279232 -0.49234217
000300 a3 71 21 3f 0f cc 26 bf 32 03 d8 be 89 dd 22 3e
       0.6306402 -0.6515512 -0.42189938 0.15904821
000310 5a af 1f bf 99 14 06 bf 5e 59 a3 be 9d 43 f2 bd
       -0.6237694 -0.5237518 -0.3190412 -0.118293025
000320 0c 8f 3b bf 58 2a e5 be 80 f7 3d 3e fe 84 0c be
       -0.7326515 -0.44758868 0.18551445 -0.13722607
000330 84 e4 c6 be 3d c5 4e bf 4a 66 7a bf 2c 86 45 bf
       -0.3884622 -0.8076971 -0.9781233 -0.77157855
000340 93 99 0e bf 3d b5 21 3c 03 2c e2 be bf 65 73 bf
       -0.55703086 0.009869871 -0.44174203 -0.9507713
000350 00 f0 b5 be 00 a8 27 be 4c 39 c1 be 7e f9 37 bf
       -0.35534668 -0.1637268 -0.37739027 -0.7186507
000360 4a 95 58 bf 5f dc 23 bd 75 a7 7c bf 03 68 ea be
       -0.846028 -0.040005084 -0.9869302 -0.4578248
000370 76 cf 14 bf a8 20 c8 be e2 dd f5 bd b1 c1 67 bf
       -0.5812906 -0.39087415 -0.120052114 -0.90529925
000380 b6 db 8c 3e f7 2c 3d bf 82 eb 48 bf e9 aa ab be
       0.27511376 -0.73896736 -0.78484356 -0.33528832
000390 8c c9 bf be dd 8c 97 bf 98 66 46 bf 5c c4 66 be
       -0.37458456 -1.1839863 -0.77500296 -0.22535843
0003a0 f9 f4 86 be 11 e1 01 bf ad 05 82 bf 3a b9 1a bf
       -0.26358774 -0.5073405 -1.0157982 -0.60438883
0003b0 b5 32 45 bd 84 58 8f bf 41 14 ce be 46 d2 0c be
       -0.04814406 -1.1198888 -0.40249828 -0.13752088
0003c0 df 45 6b be 04 ef 0b bf 79 f1 37 be 6a 56 34 bf
       -0.22975872 -0.54661584 -0.17963208 -0.7044436
0003d0 11 00 92 be 66 39 47 bf 68 7f 18 be 16 41 0a bf
       -0.28515676 -0.7782196 -0.14892352 -0.54005563
0003e0 12 22 37 bf ff 87 de be 35 39 9b be 41 ad ac be
       -0.7153636 -0.43463132 -0.30317083 -0.33725932
0003f0 c6 e6 10 bf 60 50 0a 3e 50 3a 30 bf 52 68 c5 be
       -0.5660213 0.13507223 -0.6883898 -0.38556153

fc2.weight f4 [300, 404]
000000 89 67 4b be f0 b2 f2 3b ce 1d 81 3e 0a d5 26 be
       -0.19863714 0.007406585 0.25218052 -0.16292205
000010 6b 74 6a be 29 67 b0 3e 43 c7 26 be 25 36 ff 3e
       -0.22895972 0.34453705 -0.1628695 0.49845996
000020 c6 ad 09 3c 56 90 27 3e 45 54 2c bf d5 58 bb 3e
       0.008403247 0.16363654 -0.67316085 0.3659121
000030 16 b0 06 3e 58 85 fa 3e 1a 91 11 be cb b0 8a be
       0.13153109 0.48929858 -0.14215508 -0.27088007
000040 cd 72 19 3e bf 85 0b bf 6f 65 13 3d 61 56 46 3e
       0.149852 -0.54500955 0.035985406 0.19368888
000050 80 49 50 be f0 1f 70 3e d8 d6 e8 3d d1 8a 69 bf
       -0.20340538 0.23449683 0.11369103 -0.9122744
000060 15 8e ba 3e 65 f5 84 3e 7f 4f df be 4d dc 04 3e
       0.36436525 0.2596847 -0.43615338 0.12974663
000070 1f dd d5 be 95 7f c6 bd 44 2e cc bd 4c 7a 34 bf
       -0.41770265 -0.09692303 -0.09969762 -0.7049911
000080 b3 fc 84 be 02 87 d4 3c 40 db 68 3e 04 95 d8 be
       -0.25974044 0.025943283 0.22739887 -0.4230119
000090 f1 34 54 3d 5a 10 df be e0 a6 71 be 1b ed 0e bf
       0.0518083 -0.43567163 -0.23598814 -0.55830544
0000a0 86 f5 a8 3e ad b2 10 3d 0d e8 ac 3e ab af 76 bd
       0.3299982 0.03532665 0.3377079 -0.060226124
0000b0 c3 bd 1b 3d c5 7d 88 bc 7b 49 83 bd a5 ed a9 3e
       0.038022768 -0.016661534 -0.064105 0.3318912
0000c0 60 e7 8c be 14 b6 25 be f9 bf d5 be 45 b1 2b 3f
       -0.27520275 -0.16182739 -0.41748026 0.67067367
0000d0 cc 3c 24 3e af e6 15 3e 5c 0b 9a 3e d5 4f a4 be
       0.16038817 0.1463878 0.30086792 -0.32092157
0000e0 88 d1 08 bf 4a f5 f4 bd f7 ff 39 bf f2 da 83 bd
       -0.5344472 -0.11960848 -0.72656196 -0.06438245
0000f0 3a 7b de 3d 03 90 c7 3d 01 74 c6 be c2 51 bd 3e
       0.10863347 0.09744265 -0.3876038 0.3697644
000100 73 18 51 bf 46 68 ad be 45 70 71 bd e1 7e 4d be
       -0.8167793 -0.33868617 -0.05894496 -0.20067932
000110 e4 ea 49 3e e6 97 05 bf 81 e2 be bd ca 20 4a 3f
       0.1971851 -0.52184904 -0.09320546 0.7895628
000120 4e 6d 69 3a 98 58 39 3e e5 72 0a 3e ff ce b0 bd
       0.00089045323 0.18100202 0.13520391 -0.08633231
000130 ad 2c 63 3f c9 01 8e 3e 0b 31 a9 be 82 12 a6 be
       0.88740045 0.27735737 -0.3304523 -0.32435995
000140 3c f9 24 3f 67 b6 18 bd af 99 51 be 72 e3 1f 3f
       0.644428 -0.037283327 -0.20468782 0.6245643
000150 2b cf 0b 3d 16 4f 94 3d 03 4c f6 3d 9b da 12 3e
       0.034133118 0.07241647 0.12026217 0.14341204
000160 61 4c ae 3d 3e 06 14 3f 10 c9 5b bf dd ed 8b be
       0.08510662 0.57822025 -0.8585367 -0.27329913
000170 d4 80 e6 3d e0 ec f1 be da bc d0 3e e3 08 39 bd
       0.11255041 -0.47251034 0.40769082 -0.04517449
000180 6a 59 40 bf c4 e0 09 bf 9a 34 91 3e da b3 de bc
       -0.75136435 -0.5385859 0.28360444 -0.02718537
000190 0f f0 9b 3e e9 b1 6c bf 5e 24 21 3c 4d 48 8a be
       0.30456588 -0.9245897 0.009835331 -0.27008286
0001a0 15 a2 49 3e 40 ce d7 be 3c 28 af be a1 c0 45 bd
       0.19690736 -0.42149544 -0.34210384 -0.04827941
0001b0 ba 84 61 3d eb 86 47 be 6e dd 18 3e 77 b1 ce 3d
       0.05505822 -0.19485061 0.14928219 0.100924425
0001c0 89 b8 76 3e 33 f6 7d bf 28 f2 31 be 13 d1 88 3e
       0.24093832 -0.99203795 -0.17377532 0.2672201
0001d0 f9 ec d9 be b3 89 b2 3e 96 49 d9 be a7 84 f7 be
       -0.42563608 0.3487068 -0.42438954 -0.48343393
0001e0 cf 9f 03 3f 96 bf 4d 3d 84 3b 3b bf 73 08 cc be
       0.51415724 0.05023154 -0.7313769 -0.39850196
0001f0 db 69 d8 be 66 f4 7d be 2e 27 9a 3c c2 c4 59 3e
       -0.4226826 -0.24800262 0.01881751 0.21266463
000200 19 33 81 bf 4f 69 87 3e 8a 47 10 3e eb bd e2 bd
       -1.0093719 0.26447532 0.1408979 -0.1107138
000210 bf 19 84 be 57 04 80 3d 18 3e be bd 0d a9 2e be
       -0.25800893 0.06250828 -0.09289187 -0.17056675
000220 04 30 38 be ca 9d 8c 3e 2e 6b e9 3b c5 9a 0a bf
       -0.17987067 0.27464134 0.0071233725 -0.5414241
000230 56 01 68 3e cd b2 5b 3e 52 3e 43 3e 23 85 96 3d
       0.2265676 0.21454926 0.19066742 0.073496126
000240 b8 e7 dd be af fa 35 3f 69 29 1d 3f 59 82 b3 3d
       -0.4334085 0.7108564 0.6139131 0.08765096
000250 f7 21 15 3f f7 18 3a bf 3a 23 fa 3d 00 50 3c 3d
       0.5825495 -0.72694343 0.1221375 0.04597473
000260 14 73 ba bd 94 9d 63 bd d6 35 b8 3c 97 b3 e0 be
       -0.09103981 -0.0555702 0.022486608 -0.43887016
000270 79 69 db bd c6 7b 5f 3f f0 99 4a bb 7b 47 52 be
       -0.10713477 0.8729824 -0.0030914508 -0.2053508
000280 97 9e 69 bf f3 06 27 bf ec 41 12 bf ab 37 a6 3e
       -0.91257614 -0.6524498 -0.5713184 0.32464346
000290 59 b6 28 bf 6b c3 1e bd 18 33 c5 3b 88 87 5b bd
       -0.6590324 -0.038760584 0.0060180537 -0.05359605
0002a0 f7 0e ba be 95 d2 89 3e cf ef 00 be fc a4 65 3e
       -0.36339542 0.26918474 -0.1259148 0.22426218
0002b0 c0 69 17 bf 02 a5 0b be 44 0e 10 3e 35 ba 1f 3e
       -0.59145737 -0.13637164 0.14067942 0.15598376
0002c0 d3 ff 32 be 86 43 82 3e a7 4a 27 be a1 86 87 bb
       -0.17480402 0.2544214 -0.16337071 -0.004135922
0002d0 76 21 3a bf 38 0e 6e bf ec a9 34 bf ba f0 79 bd
       -0.7270731 -0.92990446 -0.7057178 -0.06102059
0002e0 97 6c 6b bf 2b b6 6e bf 82 63 58 3d cb e5 c5 3e
       -0.9196257 -0.93246716 0.052829273 0.3865188
0002f0 99 1b c9 bb 4e 1a ec be e7 16 3b bf 55 84 1c 3e
       -0.006137323 -0.4611382 -0.7308182 0.15284856
000300 a1 de 18 bf 4d 9b 8c bd 43 a3 bf bf b7 27 1b bf
       -0.59714705 -0.06865559 -1.4971699 -0.60607475
000310 77 c5 e0 3b 6f ad cd bc 29 7b bf bd 40 5e f1 3d
       0.006859477 -0.025107114 -0.09349663 0.11785555
000320 31 3e 35 be 3f 55 06 3e 16 c7 f2 bc 3b 17 4d 3e
       -0.17699505 0.13118456 -0.029635947 0.20028393
000330 55 a4 9f be bb a3 4c 3e b4 40 09 3f 37 31 83 3d
       -0.31180063 0.19984333 0.53614354 0.06405871
000340 b6 52 60 bd 1d 16 85 b8 6f 65 8a 3e b0 1d 0e 3e
       -0.05476638 -6.346053e-05 0.27030513 0.13878512
000350 8c 27 fe 3e 80 8b 51 bc e6 98 71 bf 52 88 47 3e
       0.49639547 -0.012789607 -0.9437393 0.19485596
000360 d7 f0 54 3f 16 27 3e 3e 40 69 d6 3e fb 41 01 bf
       0.8317999 0.18569598 0.41877174 -0.50491303
000370 1d f3 51 3e ed d2 60 be 93 a1 4b 3d 4f 5f b8 bd
       0.20502897 -0.21955462 0.049714636 -0.09002554
000380 7c 50 83 be 43 9a c5 3c 96 e2 40 be ef 3e ba 3e
       -0.25647342 0.02412141 -0.18836436 0.3637614
000390 51 a3 c6 bc 42 35 96 3e e0 ac ae bd db db 4e bf
       -0.024247797 0.29337507 -0.08529067 -0.8080422
0003a0 95 97 28 be f9 49 38 be 55 c4 de 3d fb d9 cd 3e
       -0.16464074 -0.17996968 0.10877291 0.40205368
0003b0 99 b4 bc 3e 7c 26 81 bd 47 29 76 3e 3a a9 10 be
       0.36856535 -0.063061684 0.24039184 -0.14127055
0003c0 f7 54 a6 bf 40 f2 b0 bd 00 9c 65 3e 26 7e a8 bd
       -1.2994679 -0.086399555 0.2242279 -0.08227186
0003d0 e1 a7 c0 be 49 45 b2 3e 39 ea 3b be 0d 11 a3 3e
       -0.3762808 0.34818485 -0.18351068 0.31848946
0003e0 19 c6 69 bd f0 c4 f7 3d 8b b0 26 3d d5 55 a1 be
       -0.057073686 0.1209811 0.04069571 -0.31510797
0003f0 d8 7c 23 3d 6a ae 2c bc fe 60 3f 3e 45 3d 7e 3e
       0.039913982 -0.01053963 0.18689343 0.2482806

fc2.bias f4 [300]
000000 7f 6b 43 3e a0 3f 41 bf 43 ea 07 bb 01 bc 56 bd
       0.19083975 -0.7548771 -0.0020738996 -0.05242539
000010 17 d9 99 be 30 c5 23 3f 0c 33 d0 3e d7 09 e4 bc
       -0.3004844 0.6397276 0.40663946 -0.027836723
000020 f9 ce 44 bf 21 96 c8 bd bd 1b 85 be 7d ae ee bd
       -0.76878315 -0.0979426 -0.25997725 -0.11654375
000030 0f 0e e9 3e 4d 73 d7 bd ae d7 21 bc fb dc 2b be
       0.45518538 -0.10520039 -0.009878082 -0.16783516
000040 3f 44 25 bd 27 a9 ab bd 0a ca c1 be da 5b 84 be
       -0.040348288 -0.083818726 -0.37849456 -0.25851327
000050 09 73 3f be 4a b8 46 bb 68 58 81 3f 0d c2 48 bd
       -0.18696226 -0.0030322247 1.0105104 -0.049013186
000060 b0 56 25 3f 2d ec b7 bc 38 d8 fa 3e 30 5f 66 3f
       0.645854 -0.022451485 0.48993087 0.89988995
000070 63 53 d6 3e 7b fe 49 be 34 5e 5f bc e2 a1 17 bd
       0.41860494 -0.19725983 -0.0136333 -0.037019618
000080 0f e4 16 bf ff 6f 4b bd a5 10 09 bf a2 a6 0d 3e
       -0.5894174 -0.049667355 -0.5354102 0.13833097
000090 2c a4 27 bf 82 cf 62 3e 60 fb ff be 43 9b a2 3e
       -0.6548488 0.2214947 -0.4999647 0.3175908
0000a0 3d f1 3b be 56 0e 2b bf 62 82 ad 3e 9d b5 0a 3f
       -0.18353744 -0.6681875 0.33888537 0.5418337
0000b0 a0 56 b4 3e e2 17 ad bc f1 a3 03 bd 00 9a 31 bd
       0.3522234 -0.021129552 -0.03213877 -0.043359756
0000c0 21 36 94 bd e8 0a 9f bd 5e b7 e6 be b9 72 a2 be
       -0.07236887 -0.07765752 -0.45061773 -0.3172815
0000d0 7c 47 e6 3e 24 9b 0b bf e5 7e 2f 3f d3 74 16 bb
       0.44976413 -0.545336 0.68553 -0.0022957816
0000e0 8b 78 75 bd 6e c6 57 bf aa e0 8c bd 1e 4e 41 bd
       -0.05992941 -0.84287155 -0.06878789 -0.04719364
0000f0 71 77 13 bf 91 6b 0c bd 8d 9c 6d bd 5a 11 0e bf
       -0.5760413 -0.03428227 -0.058010627 -0.55495226
000100 41 c1 64 3e a7 a1 5c 3f 2d ce 63 bd 07 b0 10 be
       0.22339346 0.8618416 -0.055616546 -0.14129649
000110 23 d4 15 bf 90 0d 8f bd b6 89 3f be 47 90 27 3f
       -0.5852682 -0.06985009 -0.18704876 0.65454525
000120 99 f1 26 3e bc 4b 9c bd 96 bc b2 3c 7f f4 09 3f
       0.163031 -0.07631633 0.02181844 0.53888696
000130 cb 2c aa 3d 05 8e f8 bb 57 e0 5b bd 91 16 23 bd
       0.08309325 -0.0075852894 -0.053680744 -0.039816443
000140 3d 5c 96 bd 9c 45 6d bd bc a2 86 3e 83 e5 ed bd
       -0.07341812 -0.057927713 0.2629603 -0.116160415
000150 22 03 a7 bd cb 23 17 3d 1f 1f 17 bd bb 02 57 be
       -0.081548944 0.03689937 -0.036894914 -0.20997135
000160 97 34 75 3e 31 b8 b0 3e 13 f8 37 3b 4e 96 e1 3d
       0.23945843 0.34515527 0.0028071448 0.110149965
000170 52 25 24 be 8b db dd 3e 5d c7 aa bc fb 49 3f bd
       -0.16029862 0.4333156 -0.020847017 -0.046701413
000180 e1 a4 90 bc 2a 10 54 3f 38 ff 92 bd 25 05 7b 3e
       -0.017656745 0.82837164 -0.07177585 0.24513681
000190 9f 6a 97 be 85 86 21 3e 4b c4 d5 bc 31 96 ab bd
       -0.29573533 0.15773971 -0.026094576 -0.08378256
0001a0 78 e5 92 3d 16 f8 55 3e 1e b7 c6 bd b0 ea 31 3e
       0.07172674 0.20895419 -0.097028956 0.17374682
0001b0 5c 15 bd bd 0d 53 15 bd 98 8f 67 3f 22 74 99 bc
       -0.092325896 -0.036456157 0.9045348 -0.018732134
0001c0 9c da aa 3e 39 0b 4e bd 08 94 a3 be bc 86 53 be
       0.3336991 -0.05030367 -0.31948876 -0.20656866
0001d0 33 92 39 3f 3c 72 b9 be bd 4d 10 bd 3a 01 8d bc
       0.7248871 -0.36219966 -0.035230387 -0.017212499
0001e0 08 2c d5 be ab d4 2d 3c 57 c6 56 bf 0d 5c 16 be
       -0.41635156 0.010609786 -0.8389639 -0.14683552
0001f0 ba 1f 5c be 25 4d f3 ba 31 3c e3 bc 59 fb 9c bd
       -0.21496478 -0.001856242 -0.027738662 -0.07665128
000200 07 52 10 bd 1d 03 10 3f 76 b5 11 bf 7c 90 8e bd
       -0.035234477 0.5625475 -0.5691751 -0.06961152
000210 62 de d5 be 5b 84 5d bd 64 07 a8 bc a3 83 82 bd
       -0.41771227 -0.054081302 -0.020511337 -0.06372764
000220 74 f5 38 3e a0 84 c3 be 66 cf 5d bd c9 3d 04 3f
       0.18062383 -0.38187122 -0.05415287 0.51656777
000230 b4 63 e0 bd 6c 7e e8 bd 4a 4d 28 bf db dd 72 be
       -0.10956517 -0.11352238 -0.65742934 -0.23717444
000240 16 30 60 be 9e a9 4e bd d7 11 0f be e2 f2 2e 3e
       -0.21893343 -0.05045473 -0.13971649 0.1708484
000250 23 fd b3 3e d4 0b 5e bd 55 34 3b be 8e bd 48 bb
       0.35154065 -0.0542105 -0.18281682 -0.0030630562
000260 1a ad 04 bf f6 da 07 bf bc 5a 9b bd 49 fc 52 bd
       -0.5182663 -0.5306848 -0.075856656 -0.05151013
000270 40 ff f3 3d e0 1a da bd 41 92 b9 bd 3f ff 86 bd
       0.119139194 -0.10649657 -0.09061099 -0.06591653
000280 aa 9b 06 3f 9e dd 5e 3c 7c 1d 36 3f 22 38 78 3c
       0.52581275 0.013602642 0.7113874 0.015150102
000290 16 cc 54 3e e5 04 94 3e c3 02 8b bd 8f 41 bb be
       0.20780978 0.28909984 -0.06787636 -0.36573455
0002a0 98 b7 87 bd d4 24 84 bc a3 e8 86 bd 7c 43 4f be
       -0.066268146 -0.016130842 -0.06587341 -0.20240587
0002b0 b8 fb e3 bc e1 e0 cb bd 48 2f c6 bd 81 cf 78 bd
       -0.02782999 -0.099550016 -0.09676987 -0.060744766
0002c0 97 a3 64 bd d0 43 30 bd 1b 15 81 bd 2f 80 ad bd
       -0.055820074 -0.04303342 -0.06302854 -0.08471715
0002d0 cb c7 e1 bd 60 39 44 bf 26 2b 43 bd 63 de 83 bd
       -0.110244356 -0.7665005 -0.04764857 -0.06438901
0002e0 1d 67 32 be 39 cb 10 bf 47 35 a9 bd 74 38 e1 3d
       -0.17422147 -0.56560093 -0.08262115 0.10997096
0002f0 d5 51 f1 bc 46 af b7 be 57 bc 08 bb fe 1b a3 3d
       -0.029457966 -0.3587591 -0.0020864212 0.079643235
000300 06 67 ac be 4f ea cd bd 7f 8d 6c bd 2d 20 41 bb
       -0.3367235 -0.100544564 -0.05775213 -0.002946864
000310 47 a0 7a bd 5c e5 3c 3e 31 50 b2 3c 89 98 ca bd
       -0.06118801 0.18446869 0.021766754 -0.09892375
000320 6e 7a 64 bd 5f a2 a5 3e 4f 9d da be 21 41 b7 3e
       -0.05578082 0.32350442 -0.42698142 0.35791877
000330 a9 cc 2a 3f bd 73 83 bd c8 49 8d bd 4f b6 38 3f
       0.66718537 -0.0641856 -0.06898838 0.7215318
000340 73 4f 9f 3d 35 6a 83 bd 3c 95 3e bd 33 22 19 3f
       0.077788256 -0.06416742 -0.04652904 0.5981781
000350 a6 2e 1c 3f 2b a5 d0 bd 2a 32 a2 bd 1e bf 41 bf
       0.6100868 -0.10187753 -0.07919724 -0.75682247
000360 f8 48 9f bc ce fc 0d be 8c 6d be 3f 29 ba 9e bd
       -0.019443974 -0.13865969 1.4877181 -0.07750351
000370 38 4b 03 bf 1e 08 26 bd 24 67 3e be fd c0 ee bc
       -0.5128665 -0.040535085 -0.18594033 -0.029144758
000380 f6 94 b4 be 38 e8 70 3d 8b 6e eb 3e 53 97 2a 3f
       -0.35269898 0.05881521 0.45982775 0.6663715
000390 7e c4 de 3d d8 d4 a6 bd 71 cf bb bc f0 47 95 bd
       0.10877322 -0.081460655 -0.022926064 -0.072891116
0003a0 a0 ba 8c bd 77 20 07 bf f1 29 23 bd 87 2c fe bd
       -0.068715334 -0.5278391 -0.03983492 -0.12410837
0003b0 84 0a 5c bd 83 7d af 3e 25 be b3 bd ce d4 6f bd
       -0.053720966 0.34275445 -0.087765016 -0.058552556
0003c0 df 9a 0b 3f 12 93 64 3d d0 56 f8 3e 56 b9 e8 bc
       0.5453319 0.05580432 0.48503733 -0.028408688
0003d0 60 51 43 b9 d7 80 79 bd 8d 42 36 3f 01 3c a9 bd
       -0.00018626964 -0.060913887 0.711953 -0.08263398
0003e0 10 27 89 bd 63 36 e7 bc b9 be 0d 3c a3 58 43 3f
       -0.06696904 -0.028224176 0.008651429 0.76307124
0003f0 76 03 fe bb ca d3 d4 bd d6 17 e0 be 8d 0c 30 3d
       -0.0077518774 -0.10391958 -0.43768185 0.04298072

fc3.weight f4 [1, 300]
000000 ab fc 7a 3c 71 9f 8b bc 5f 4e e9 3b 9b c9 45 3b
       0.01531903 -0.017043801 0.0071199383 0.003017998
000010 dc 71 cc bd 03 68 4d 3c cd d7 5a 3c 16 87 de 3b
       -0.099826545 0.012537005 0.013357115 0.006791006
000020 35 68 69 bc d0 2b 86 3b a4 0e d8 bc 83 61 24 bd
       -0.014246036 0.0040945783 -0.026374169 -0.040132057
000030 c4 bb 63 3c 9a 40 f7 3c 1a 00 9b 3c aa 0b c6 bd
       0.013899747 0.030182172 0.018920947 -0.096701935
000040 d0 b5 a5 bb 08 70 0d bc ce 61 c0 bd ec ee c1 bd
       -0.005057074 -0.008632667 -0.09393655 -0.09469399
000050 ca 46 3d 3d ab 05 2c 3c bb 05 18 3d 95 82 b1 3b
       0.046210088 0.010499398 0.03711484 0.005417178
000060 80 da 50 3c 71 fe 8e 3b 87 a2 31 3c 2a e8 0d 3d
       0.012747407 0.004363828 0.010841972 0.034645237
000070 fb 24 6f 3c ca 5c 84 bd 7e e7 8e 3c c4 94 d8 ba
       0.014596219 -0.064630106 0.017444368 -0.0016523828
000080 0a dc c1 bc b5 96 47 3c 9d a3 7f bc 24 bc a4 3c
       -0.023664493 0.012181927 -0.015602973 0.020109244
000090 58 3d d2 bc 9e b4 9b 3c aa f2 80 bc 2a b7 c3 3c
       -0.025664017 0.019007023 -0.015740711 0.02389105
0000a0 c4 94 a3 bd ee 46 84 bc 90 f1 e4 3c 0f 00 86 3c
       -0.07987359 -0.016147103 0.027947217 0.01635745
0000b0 9c f9 93 3c b9 1b 9c 3b 7e e6 54 bc 2f d8 6a bb
       0.018063359 0.004764047 -0.012994407 -0.0035834422
0000c0 a8 6f 5c bb 16 9d 29 bc c7 18 c2 bc 66 06 f7 bc
       -0.0033635888 -0.010352394 -0.023693455 -0.030154418
0000d0 64 77 46 3c de 01 74 bc 8f a8 90 3c 45 1d df 37
       0.012113426 -0.014893023 0.0176585 2.6597301e-05
0000e0 99 dc d9 3c 63 4c b0 bc 2f 9a 51 3d bf f0 53 3a
       0.026594447 -0.021520799 0.05117243 0.0008084885
0000f0 89 36 d2 bc 2c b9 9f 3c f3 c5 35 3c d9 b5 ab bc
       -0.02566077 0.019497477 0.011094558 -0.020960735
000100 c3 00 7d 3c db da e1 3c e2 cd 97 bc 2a b3 0a bd
       0.015442076 0.027570179 -0.01853079 -0.03386227
000110 64 49 47 bc 0f 65 e1 bc 40 2f 8c bd 4e 52 9a 3c
       -0.012163494 -0.027514009 -0.0684495 0.018838074
000120 9e 1a 12 3d 8d 26 81 3b 6d 4c e4 bc c4 1f e3 3c
       0.035669915 0.003941363 -0.027868474 0.027725108
000130 bc b2 f0 3c dc 81 8f 3c 24 b7 e6 bc af 14 08 bc
       0.029382102 0.017517976 -0.0281635 -0.008305713
000140 4c 33 1e be e6 5e 8e 3c cc 56 79 3c 2a 40 77 3c
       -0.15449256 0.017379235 0.015218448 0.0150909815
000150 c2 d5 ce 3a 6f 4d 21 3b d3 cf a3 bb eb 12 55 bd
       0.0015780258 0.0024612804 -0.00499914 -0.052019995
000160 84 a6 d3 3c ad 9a 6c 3c bd 64 4e bd aa 07 ff 3c
       0.025836237 0.014441174 -0.05038904 0.031131584
000170 ba 76 a0 3c 80 1c 7a 3c 3d 0f c0 3b 85 35 1f bc
       0.019587863 0.015265584 0.0058611915 -0.00971735
000180 7a 82 61 bc b9 2c 1a 3c 71 21 a1 bc 12 95 3c 3d
       -0.013764018 0.009410077 -0.019669266 0.046040602
000190 2f 6f 35 bd 87 a3 99 3c d3 0b 0c 3d 9f bc 20 3b
       -0.044295486 0.018754734 0.034190964 0.002452649
0001a0 6f 40 2f 3d d6 94 17 3d ba 47 84 3a 7e de 96 3c
       0.042786058 0.037007175 0.0010092177 0.01841664
0001b0 46 a1 fa bc f0 4a c9 bb d2 32 f9 3c 62 5e d8 3c
       -0.03059448 -0.0061429664 0.03041974 0.026412193
0001c0 21 a5 87 3c fc d5 78 3b a2 72 a5 bc ee 4d d4 bc
       0.016558232 0.0037969342 -0.020196263 -0.025916066
0001d0 d5 94 dd 3c 0d b6 1b bd 20 14 53 ba f2 c3 90 bc
       0.027048508 -0.038015414 -0.000805201 -0.017671559
0001e0 25 2e 07 bd 08 a5 41 3d 5d 5b be bc 95 a2 5d bd
       -0.03300299 0.047276527 -0.023236925 -0.05411013
0001f0 37 96 af bc 3c f2 2c 3d bd 4f 70 bb 8f 8a 02 bd
       -0.021433933 0.0422232 -0.0036668621 -0.03187042
000200 cd ed 1b 3d 07 2d d7 3c 6f 09 27 bd 7f 85 6a bd
       0.03806858 0.026266588 -0.04078048 -0.057256218
000210 96 23 34 bd b3 81 8b 3c d2 18 53 bc f9 63 2c 3d
       -0.04397925 0.017029619 -0.012884336 0.04208753
000220 cc ac ca 3c b3 a3 c7 bc 9d a8 18 bd 9c 2c f0 3c
       0.0247406 -0.02437005 -0.037270177 0.029318146
000230 d4 11 d2 bb ce ec 8b 3c 7f b1 e8 bc 38 a6 9a bd
       -0.0064108167 0.01708069 -0.02840495 -0.07551235
000240 8f 4d d6 bd c0 fb e5 bc 25 54 6a bd aa c2 03 3d
       -0.10464012 -0.028074145 -0.057209153 0.032168068
000250 a1 54 ef 3c 56 c8 2e 3c d1 a0 1e bd ee d2 2d 3a
       0.029215159 0.010667881 -0.038727585 0.0006630857
000260 b9 56 f0 bc 44 4b 68 bc 85 00 0c bd ee db b6 3c
       -0.029338228 -0.014178101 -0.034180183 0.022321668
000270 f7 b2 88 3c fa 19 ca 3a d5 4f b1 ba 51 aa 0f 3c
       0.0166869 0.0015419119 -0.001352782 0.008768634
000280 dd a0 21 3c dc d8 cd 3b 6d 84 1f 3c 46 0e 8b 3b
       0.009865013 0.006281955 0.009736163 0.004243645
000290 3a af 6f 3c 38 ac c7 3c c4 b0 55 3c e3 53 5c bd
       0.01462918 0.024374112 0.0130426325 -0.053790938
0002a0 da b0 3b bc 05 98 b9 3b 43 d4 cc bc a8 b6 83 bd
       -0.011455739 0.005663874 -0.025003558 -0.06431323
0002b0 a7 e3 f4 bb f7 4a 2c 3b 26 91 d8 bb 60 15 7f bc
       -0.0074734273 0.00262898 -0.0066091 -0.015569061
0002c0 09 c6 0b 3b 80 f3 03 3d 49 70 b5 ba 5c 8d a0 3b
       0.0021327755 0.03221464 -0.0013842668 0.004899664
0002d0 f9 d1 0f 3e 55 23 86 bc 90 71 ad bb 83 b5 f5 bb
       0.14044942 -0.01637427 -0.0052930787 -0.0074984445
0002e0 08 18 95 bd f8 63 54 bc 8e 33 40 3c c6 52 52 3d
       -0.07279974 -0.0129632875 0.011731042 0.05134847
0002f0 6d 6f 4f 3c 32 32 00 bd 22 4f 35 3c a3 87 5a 3d
       0.012660843 -0.03129787 0.01106623 0.05335201
000300 63 70 a4 bd ec 12 54 3c 69 2a c5 bb 3e 43 98 bb
       -0.080292486 0.012943964 -0.0060170186 -0.004646688
000310 01 70 32 bc 0f 4f f3 3c 53 4c 7c 3c e1 a4 bc 3b
       -0.010890962 0.029700784 0.0153990565 0.00575696
000320 57 e1 5d ba 82 77 c9 3c 6c 6c c5 bc 18 98 9b 3c
       -0.0008464059 0.024593119 -0.024099551 0.018993422
000330 3b 9f 87 3c ba fb d9 bb 22 6f 21 bc 20 2f 71 3c
       0.01655542 -0.0066523226 -0.009853156 0.014720708
000340 09 b2 24 3d ee 1d be bb 4e 3f a4 3c 37 90 98 3c
       0.04020885 -0.0058019077 0.020049717 0.018623454
000350 ef 48 fa 3c 95 b2 2f 3d 73 9e 23 bb e5 0b 10 bd
       0.030552356 0.04289492 -0.002496627 -0.035167594
000360 cf 8c 86 3c 30 97 1d bd 89 4b e5 3d 95 a1 48 bb
       0.016424565 -0.03847426 0.11196048 -0.0030613889
000370 48 73 0d bd 5a e7 a6 3c bc 8a 6d 3d 20 02 8b bc
       -0.03453377 0.020373989 0.057993636 -0.016968787
000380 6b c2 63 bd d9 11 f9 3c 38 60 dc 3c ac 50 d8 3c
       -0.055605333 0.030404018 0.02690135 0.026405655
000390 c8 59 59 3d bb 36 e0 3c d8 2c ac bc cf 4e e1 3c
       0.053064138 0.027369848 -0.021017477 0.0275034
0003a0 13 a0 cd 3c 77 5c aa bc f7 3e e7 bc 23 34 2a 3a
       0.025100743 -0.020796044 -0.028228266 0.00064927543
0003b0 5f 8f bf b9 a5 b4 8c 3c 22 56 46 3c 5c 05 c8 3c
       -0.0003653718 0.017175982 0.012105497 0.024416618
0003c0 8c c7 fe 3c 56 81 94 3c 17 0b 95 3c 82 b4 47 3c
       0.03110101 0.018128078 0.018193765 0.0121890325
0003d0 2b 61 bd bd 06 36 e3 3b fb d5 d6 3c d2 ad 9a 3c
       -0.09247049 0.0069339303 0.02622508 0.018881712
0003e0 81 cd 16 bb 32 09 32 ba c9 49 9c bc b7 30 0f 3d
       -0.0023010673 -0.00067915313 -0.019078152 0.034958567
0003f0 f6 c3 ca bb 03 77 b7 bd 52 57 c2 bc 47 74 f8 3c
       -0.006187911 -0.089582466 -0.023723278 0.030328883
