checkpoint_actor.pth (torch_old, 541411 bytes, 6 tensors)

fc1.weight f4 [400, 33]
0.0098621715 -0.291719 0.6986746 -0.048970502 0.24703221 -0.0026925746 0.24215184 -0.12545475
0.12755188 -0.051137693 0.09693924 -0.01691327 -0.14200188 0.057470407 0.19729444 -0.67108744
0.3659287 -0.011114348 0.41718557 -0.047619097 -0.09193384 0.017764444 -0.20869525 -0.08271619
-0.008505122 -0.062331915 -0.14810042 0.09137652 0.5111997 -0.047398765 -0.15766142 -0.01944154
0.5124782 0.43173465 0.029314 0.78416485 0.05185895 0.16049322 0.17695366 0.34930292
-0.07141977 0.08199291 0.34675297 0.0122597255 -0.014074787 -0.03525579 -0.37766963 0.013100343
-0.6808946 0.0089635365 0.16297871 -0.068673976 -0.081766784 0.01491532 0.11967974 0.1000303
-0.08284675 -0.101463266 -0.1679553 0.4236651 0.33520037 0.23453917 -0.04290504 -0.29400262
-0.04446234 -2.4379313 -0.26237944 0.4715733 -0.22032379 -0.6625087 -0.9999761 -0.053281642
-0.05444916 -0.021508837 1.2500099 0.2735017 -0.3195606 0.20748079 -0.20448889 -0.47552544
0.83137393 -0.1658552 -0.58336353 -0.502694 0.4519032 0.16477267 0.3525405 0.15971965
0.056251712 -0.20909658 0.313222 0.1741552 -0.007723092 0.7395931 -0.012961429 0.017491315
-0.6919241 0.027816866 -0.89219534 -0.49226093 -0.2483928 -0.053497307 0.07253392 -0.21155068
0.33578396 0.15468049 -0.28043833 0.35544464 -0.17821895 0.13612372 -0.15923354 -0.00086765003
0.3473008 0.40878052 -0.031037664 -0.051234122 0.1190747 0.55706704 0.07905804 0.40209216
0.01674993 -0.27629897 -0.5065351 0.20197307 -0.23345703 -0.40210286 0.44743675 -0.21987353
0.00067011267 -0.4583025 0.0330174 -0.67610854 0.1558813 -0.38340345 -0.036736853 0.09919398
0.19438322 0.54217446 0.90363663 0.5097298 -0.23665316 -0.079217345 0.049848672 0.012043251
-0.036631793 0.18886861 0.5931044 -0.3324351 -0.22806376 -0.07170008 0.5864852 0.3337582
-0.08748451 -0.05507501 0.09196679 0.32947218 0.25119185 0.31647995 0.18032326 0.45587605
0.02909714 -0.02358663 -0.456285 0.039982285 -0.7197245 0.04029392 0.111391835 -0.5188713
-0.025362007 -0.109343864 -0.2039498 -0.22583781 0.47017154 -0.0457636 -1.1781243 -0.27807516
0.052317977 0.49627304 0.034949314 0.39761272 0.04625625 -0.23611988 -0.39556602 -0.45654514
-0.09406655 -0.15325151 -0.20560358 0.19326779 0.26285926 -0.068654194 -0.41397744 -0.03324607
0.57485515 0.09806635 -0.04607708 -0.54337114 -0.0018865578 1.7272868 0.81515956 0.38598147
0.12155752 -0.034597997 0.15976448 -0.09439614 0.16537113 -0.09501994 -0.04564315 0.24579382
0.040506486 0.07237678 0.023898983 -0.61324704 -0.42517015 0.019022768 0.095206924 -0.10276341
-0.14640413 0.0078723645 -0.051290274 -0.22771409 0.03741191 -0.1716159 -0.06611899 0.17724672
-0.035159763 0.7026554 -0.02462902 -0.01647792 -0.6639879 -0.048115272 -2.5374389 0.83258754
0.083281934 -0.26488522 0.4119109 -0.50132716 0.06625583 0.13718615 0.10412138 0.19615941
0.007864685 -0.008454214 -0.077591516 0.08368724 -0.8060646 -0.16396746 0.29060543 0.23531538
0.15087616 0.26868328 -0.1402925 0.062490646 -0.21869871 0.11521065 -0.46712932 -0.06031681
00000000: f294 213c 315c 95be 57dc 323f 4b95 48bd
00000010: 03f6 7c3e e875 30bb a7f6 773e 3677 00be
00000020: f69c 023e c275 51bd 1588 c63d b38d 8abc
00000030: f168 11be 1766 6b3d 8e07 4a3e 63cc 2bbf
00000040: 025b bb3e f418 36bc 5999 d53e 3e0c 43bd
00000050: cf47 bcbd bd86 913c 35b4 55be 1b67 a9bd
00000060: 1159 0bbc c04f 7fbd a3a7 17be 9d23 bb3d
00000070: fcdd 023f 3525 42bd ff71 21be dd43 9fbc
00000080: c531 033f 530c dd3e ea23 f03c 07bf 483f
00000090: 0d6a 543d 5658 243e 5733 353e d5d7 b23e
000000a0: 8744 92bd e6eb a73d 9b89 b13e 04dd 483c
000000b0: ef99 66bc 6068 10bd ea5d c1be d2a2 563c
000000c0: 1c4f 2ebf ccdb 123c e4e3 263e f1a4 8cbd
000000d0: 5875 a7bd 635f 743c a71a f53d b0dc cc3d
000000e0: 8fab a9bd f9cb cfbd 79fc 2bbe a2ea d83e
000000f0: 629f ab3e 092b 703e 32bd 2fbd 8387 96be
00000100: 251e 36bd 1107 1cc0 9956 86be 0e72 f13e
00000110: 8f9c 61be 2c9a 29bf 6ffe 7fbf da3d 5abd
00000120: 1506 5fbd 4d33 b0bc 5300 a03f 6a08 8c3e
00000130: 729d a3be d875 543e 8965 51be 1278 f3be
00000140: ecd4 543f f2d5 29be 5057 15bf 8eb0 00bf
00000150: db5f e73e 2bba 283e 3080 b43e 8c8d 233e
00000160: 3268 663d 6a1d 56be a25e a03e be55 323e
00000170: fe11 fdbb f955 3d3f 2c5c 54bc f249 8f3c
00000180: f021 31bf 32e0 e33c ea66 64bf a009 fcbe
00000190: af5a 7ebe fe1f 5bbd aa8c 943d bea0 58be
000001a0: e0eb ab3e 9064 1e3e 9d95 8fbe d7fc b53e
000001b0: 077f 36be 0464 0b3e 1e0e 23be 0273 63ba
000001c0: 69d1 b13e ae4b d13e b342 febc dfda 51bd
000001d0: 70dd f33d f29b 0e3f 2fe9 a13d 06df cd3e
000001e0: 2637 893c 0f77 8dbe 49ac 01bf 07d2 4e3e
000001f0: 5c0f 6fbe 6de0 cdbe 6e16 e53e 8726 61be
00000200: 80aa 2f3a a0a6 eabe 413d 073d 7315 2dbf
00000210: 599f 1f3e 754d c4be 6279 16bd 3726 cb3d
00000220: 650c 473e f2cb 0a3f bb54 673f a77d 023f
00000230: 3555 72be b43c a2bd 1f2e 4c3d 0e51 453c
00000240: 380b 16bd c666 413e b1d5 173f ef34 aabe
00000250: 8c89 69be 7ed7 92bd e523 163f 5be2 aa3e
00000260: 142b b3bd 5596 61bd 1659 bc3d 94b0 a83e
00000270: 389c 803e a909 a23e a9a6 383e 9668 e93e
00000280: 205d ee3c c038 c1bc 309e e9be 77c4 233d
00000290: dd3f 38bf 3d0b 253d 6721 e43d c0d4 04bf
000002a0: fcc3 cfbc adef dfbd 37d8 50be 0742 67be
000002b0: 53ba f03e 9d72 3bbd c7cc 96bf de5f 8ebe
000002c0: 604b 563d 8017 fe3e 0327 0f3d e593 cb3e
000002d0: 3277 3d3d 69c9 71be a187 cabe 49c0 e9be
000002e0: f7a5 c0bd f7ed 1cbe bf89 52be fee7 453e
000002f0: 7d95 863e 929a 8cbd daf4 d3be 082d 08bd
00000300: b529 133f 03d7 c83d 52bb 3cbd 5f1a 0bbf
00000310: 6046 f7ba bc17 dd3f 4cae 503f 5d9f c53e
00000320: 26f3 f83d a1b6 0dbd 4d99 233e c352 c1bd
00000330: 0d57 293e d099 c2bd 50f4 3abd 60b1 7b3e
00000340: 21ea 253d 473a 943d cdc7 c33c c2fd 1cbf
00000350: e7af d9be a3d5 9b3c d9fb c23d 9f75 d2bd
00000360: f7ea 15be 17fb 003c c015 52bd e22d 69be
00000370: 3b3d 193d 14bc 2fbe 6569 87bd 2a80 353e
00000380: af03 10bd 39e1 333f ccc2 c9bc b4fc 86bc
00000390: 1cfb 29bf 8514 45bd 6665 22c0 7524 553f
000003a0: b88f aa3d 099f 87be fce5 d23e fa56 00bf
000003b0: 23b1 873d 877a 0c3e 973d d53d 03de 483e
000003c0: e1da 003c 8b83 0abc 4de8 9ebd 3764 ab3d
000003d0: 405a 4ebf 16e7 27be 3cca 943e 84f6 703e
000003e0: 487f 1a3e db90 893e d6a8 0fbe 31f6 7f3d
000003f0: 8ef2 5fbe 90f3 eb3d 932b efbe c20e 77bd

fc1.bias f4 [400]
-0.17362346 -0.440872 -0.5815133 -0.4291861 -0.6137267 -0.4277276 -0.5382345 -0.43285897
-0.35016158 -0.77433294 -0.33088413 -0.46902263 -0.7959141 -0.42641017 -0.37637684 -0.5008307
-0.7063288 -0.5840238 -0.438772 -0.7705129 -0.6104553 -0.5350599 -0.7306518 -0.20364515
-0.326327 -0.25568086 -0.65227145 -0.13234355 -0.29143518 -0.5560433 -0.41161308 -0.13960268
-0.67685676 -0.74669486 -0.84735847 -0.47787133 -0.27882293 -0.45721856 -0.41342896 -0.35206476
-0.35292974 -0.5029608 -0.39396697 -0.48414534 -0.71542627 -0.23801607 -0.17397124 -0.27806008
-0.6022832 -0.13890311 -0.39878497 -0.8483493 -0.7081857 -0.61338454 -0.7628626 -0.5346764
-0.5613666 -0.30004564 -0.0109725725 -0.72797275 -1.003514 -0.09121201 -0.17608099 -0.25019282
-0.48461616 -0.16235964 -0.5027337 -0.42402744 -0.90210295 -0.57979333 -0.48367366 -0.7217087
-0.61208993 -1.076074 -0.77833885 -0.7965694 -0.6606632 -0.636641 -0.6590362 -0.8468317
-0.55006796 -0.6603392 -0.82885194 -0.44060832 -1.1409954 -1.0981956 -0.18371174 -0.3646373
0.01368298 -0.59649 -0.65640587 -0.4062353 -0.5485547 -0.39486367 -0.0022867732 -0.6486265
-0.5862749 -0.7337594 -0.8603953 -0.52355695 -0.8102422 0.077529505 -0.65443933 -0.66378486
-0.7659055 -0.44544142 -0.107777685 -0.60119754 -0.42925283 -0.8471987 -0.8567933 -0.5850536
-0.42023832 -0.33031058 -0.33878496 -0.6117368 -0.3057902 -0.43207923 -0.83699775 -0.8525501
-0.6651762 -0.78792584 -0.51078504 -0.502536 -0.40385392 -0.18302467 -0.10169508 -0.59245026
-0.7704216 -0.014143671 -0.61324173 -0.86111444 -0.5234492 -0.27833244 -0.5892806 -0.22264601
-0.6787585 -0.9314959 -0.7241065 -0.86003244 -0.5994626 -0.5851657 -0.45267266 -0.7365827
-0.7351774 -0.5674382 -0.28657073 -0.9165702 -0.46641406 -0.41948062 -0.6445128 -0.5762219
-0.72284144 -0.16688481 -1.0052471 -0.1626104 -0.6388328 -0.23191273 -0.8481045 -0.49473533
-0.840505 -0.54421324 -0.67899805 -0.2805883 -0.5026214 -0.81109995 -0.44072306 -0.8367547
-0.4059074 -0.6687649 -0.65534437 -0.32417598 -0.8364495 -0.6646095 -0.5996858 0.12719615
-0.70787174 -0.59332246 -0.66773415 -0.82523483 -0.5968012 -0.33393338 -0.6638015 -0.6905677
-0.3853466 -0.5738607 -0.5098453 -0.63687354 -0.9600452 -0.7995685 -1.0647781 -0.22863089
-0.33996093 -0.24167746 -0.56871325 -0.4592354 -0.20762582 -0.6061639 -0.20384444 -0.24285044
-0.7752778 -0.3596122 -0.20430794 -0.40507957 -0.89918417 -0.4287854 -0.34871984 -0.60481006
-0.47381178 -0.45892394 -0.43688002 -0.41689628 -0.004823005 -0.7646007 -0.63295984 -0.65432346
-0.9196818 -0.19558686 -0.39532986 -0.33016276 -0.8349709 -0.5889048 -0.080108486 -0.40014517
-0.42146075 -0.47524598 -0.71651596 -0.588441 -0.8355655 -0.64827126 -1.0179368 0.027374946
-0.43208238 -0.32615247 -0.88369054 -0.9752428 -0.39560872 -0.56042165 -0.8914399 -0.47155324
-0.5440653 -0.583799 -0.24432197 -0.83182025 -0.467253 -0.25253907 -0.7055972 -0.30894965
-0.7881209 -0.34190875 -0.72538596 -0.56901276 -0.47923753 -0.36237735 -0.7312869 0.19786827
00000000: 59ca 31be fab9 e1be 0ede 14bf 48be dbbe
00000010: 311d 1dbf 1dff dabe bcc9 09bf b19f ddbe
00000020: 6148 b3be af3a 46bf a569 a9be bc23 f0be
00000030: 07c1 4bbf 6f52 dabe 77b4 c0be 7136 00bf
00000040: f7d1 34bf 9582 15bf b9a6 e0be 5540 45bf
00000050: cc46 1cbf b0f9 08bf ff0b 3bbf 5b88 50be
00000060: 5514 a7be 9ae8 82be 43fb 26bf 1185 07be
00000070: fe36 95be db58 0ebf f3be d2be 01f4 0ebe
00000080: 7c46 2dbf 6527 3fbf 7cec 58bf 8dab f4be
00000090: e1c1 8ebe 8d18 eabe f6ac d3be d541 b4be
000000a0: 35b3 b4be 0ac2 00bf 0ab6 c9be e6e1 f7be
000000b0: 2d26 37bf 7cba 73be 8425 32be e45d 8ebe
000000c0: 3b2f 1abf 9e3c 0ebe 8b2d ccbe 6b2d 59bf
000000d0: a84b 35bf c506 1dbf f74a 43bf 8de0 08bf
000000e0: b9b5 0fbf 959f 99be 4ec6 33bc 6c5c 3abf
000000f0: 2673 80bf 5dcd babd 934e 34be 4619 80be
00000100: 9c1f f8be 9b41 26be 28b3 00bf 201a d9be
00000110: 38f0 66bf 566d 14bf 13a4 f7be e7c1 38bf
00000120: edb1 1cbf cbbc 89bf 3741 47bf f9eb 4bbf
00000130: 3921 29bf e8fa 22bf 99b6 28bf f6c9 58bf
00000140: 41d1 0cbf fd0b 29bf a42f 54bf 6a97 e1be
00000150: 230c 92bf ac91 8cbf ee1e 3cbe bdb1 babe
00000160: 942e 603c 92b3 18bf 370a 28bf 13fe cfbe
00000170: 156e 0cbf 922b cabe b0dd 15bb 630c 26bf
00000180: 1d16 16bf a8d7 3bbf de42 5cbf d407 06bf
00000190: 086c 4fbf cac7 9e3d 5689 27bf ceed 29bf
000001a0: 6212 44bf e610 e4be 8cba dcbd 15e8 19bf
000001b0: 07c7 dbbe 04e2 58bf ce56 5bbf 13c6 15bf
000001c0: 7a29 d7be 781e a9be 3975 adbe c89a 1cbf
000001d0: 8890 9cbe 7d39 ddbe 7c45 56bf b940 5abf
000001e0: fd48 2abf 82b5 49bf cfc2 02bf 33a6 00bf
000001f0: f1c5 cebe d26a 3bbe 8345 d0bd d2aa 17bf
00000200: 5a3a 45bf dbba 67bc 69fd 1cbf ff71 5cbf
00000210: c400 06bf 9781 8ebe 18db 16bf 51fd 63be
00000220: 1ec3 2dbf 8476 6ebf 0b5f 39bf 162b 5cbf
00000230: 6276 19bf 6bcd 15bf b6c4 e7be af90 3cbf
00000240: 9634 3cbf a143 11bf 66b9 92be 58a4 6abf
00000250: d3cd eebe 2ac6 d6be cafe 24bf 4783 13bf
00000260: 230c 39bf dae3 2abe f0ab 80bf 5783 26be
00000270: 8c8a 23bf 887a 6dbe 601d 59bf f34d fdbe
00000280: 562b 57bf 8f51 0bbf d1d2 2dbf 45a9 8fbe
00000290: ccab 00bf 3fa4 4fbf 74a6 e1be 8e35 56bf
000002a0: 18d3 cfbe 2d34 2bbf a6c4 27bf 65fa a5be
000002b0: 8e21 56bf d923 2abf 0285 19bf b53f 023e
000002c0: 1537 35bf fbe3 17bf a0f0 2abf 9742 53bf
000002d0: f7c7 18bf 51f9 aabe e5ee 29bf 0bc9 30bf
000002e0: 264c c5be 89e8 12bf 3985 02bf 250a 23bf
000002f0: 86c5 75bf 85b0 4cbf a64a 88bf 371e 6abe
00000300: 5c0f aebe 4c7a 77be 3197 11bf e720 ebbe
00000310: dd9b 54be 8f2d 1bbf 99bc 50be c9ad 78be
00000320: 9b78 46bf 171f b8be 1a36 51be 9766 cfbe
00000330: ef30 66bf c389 dbbe 688b b2be d5d4 1abf
00000340: 7597 f2be 14f8 eabe bdae dfbe 6e73 d5be
00000350: 4c0a 9ebb dfbc 43bf a809 22bf be81 27bf
00000360: 4470 6bbf ec47 48be ad68 cabe 180b a9be
00000370: a7c0 55bf 77c2 16bf eb0f a4bd d4df ccbe
00000380: b4c9 d7be 7153 f3be 976d 37bf 12a4 16bf
00000390: 9fe7 55bf 1bf5 25bf c14b 82bf 6c41 e03c
000003a0: e739 ddbe 75fd a6be 8b39 62bf 83a9 79bf
000003b0: 3a8d cabe cb77 0fbf 6835 64bf 6d6f f1be
000003c0: dd47 0bbf da73 15bf 8a2f 7abe 2cf2 54bf
000003d0: c93b efbe cd4c 81be 05a2 34bf a62e 9ebe
000003e0: 4bc2 49bf aa0e afbe e5b2 39bf d2aa 11bf
000003f0: 9f5e f5be 8689 b9be 9e35 3bbf fb9d 4a3e

fc2.weight f4 [300, 400]
0.14469375 -0.44083717 -0.35887426 0.042137664 0.0055917627 -0.033415835 0.18027386 0.19136937
-0.5839912 0.70524454 -0.13665125 0.4230539 0.3091511 -0.21324429 0.33275503 -0.064319335
-0.6901051 -0.8821247 0.11219869 0.27719498 -0.36022207 -0.4027916 -0.6292836 -0.42005274
-0.03983667 -0.5164406 0.31046146 0.7078275 -0.21182956 -0.51760966 0.005289723 -0.16060704
0.36008698 -0.034031596 -0.4622965 0.37873563 0.62138236 -0.03644682 0.18327488 -0.15414518
-0.19584192 0.53052294 0.3397647 -0.35402954 0.31485742 -0.7454879 0.085297726 0.23020548
0.23366289 -0.8312812 -0.12097439 0.1539346 -0.7369168 0.16672708 0.88099456 -0.5507003
-0.039504685 -0.22101244 -0.47652406 0.715908 -0.110062286 -0.40273094 -0.84311944 -0.017705228
1.1044328 -0.0047674295 -0.0037434876 0.40714246 -0.33742607 -0.2862162 0.35029662 0.20146535
0.31554645 -0.043275356 0.029877676 -0.76948655 0.10414777 -0.17015772 0.7428864 0.34941506
0.43587503 0.51219666 0.21745731 0.71489406 -0.26116043 -0.024717936 0.2264236 0.054334693
0.33604392 0.36505637 0.013683701 0.8432823 -0.50754476 0.4234803 0.08674866 -0.60575026
-0.8721006 0.19081758 -0.027113289 0.10062175 0.31011075 -0.75796634 0.3894785 -0.58264476
-0.04460712 -0.21928893 -0.084295236 0.3806584 0.21514644 -0.135255 -0.1125429 -0.07438842
-0.27121347 -0.091725856 0.109451234 0.5297091 0.29985037 0.20480905 -0.8315544 0.043578893
-0.73614043 -0.24084151 -0.4794472 -1.261157 0.06903963 -0.31731683 0.31373534 0.29151005
0.33090085 0.069090776 0.06367862 0.3782526 -0.8190143 -0.19449916 0.65308064 -0.32259372
0.0005478468 -0.29089448 0.01767765 0.18531913 0.040154457 0.5747367 0.01876456 0.3679241
0.37167495 -0.09069724 -0.4681077 -0.40975267 -0.77355546 0.026593708 0.19231726 -0.30154523
0.009682697 0.23415835 0.08294187 -0.08515815 -0.074608095 0.20247942 -1.0811507 -0.3858234
-0.6841589 0.16167417 0.19457684 0.2513747 0.09722818 0.2818221 -0.042974845 -0.5614378
-0.15413138 -0.13270876 0.013884751 -0.106837705 0.110217474 0.016273258 0.49820304 -0.24966112
0.08561371 0.026235953 0.15464003 -0.49839523 -0.07421124 -0.12923785 -0.2851598 0.56448233
-0.11529541 0.3122397 0.031199733 -1.1619228 0.17785914 0.11820696 0.29531446 -0.38612103
-0.06872611 -0.090031035 0.5706772 0.1733483 -0.48898253 0.4324201 -0.11104073 0.13270265
-1.0693924 -0.001324713 0.28161755 -0.15244302 0.27595356 0.102452524 0.062400393 0.6403241
-0.13165858 -0.12534256 -0.03003797 0.09787435 0.1241457 -0.114518225 0.21118082 0.09087826
-0.45646626 -0.20764285 -0.26080674 -0.38646337 -0.35743436 0.21526939 -0.38817832 -0.17650352
-0.14587747 -0.45302075 0.38224334 -0.30911466 -0.45063245 -0.014200847 0.016706409 -0.08727352
-0.51694065 -0.25967884 0.39566615 -0.6302252 -0.018758405 0.21871696 -0.6044811 0.15898949
0.6554533 -0.37350565 -0.28925544 0.30615908 -0.11152864 0.48253733 0.223905 -0.15237579
0.37102523 -0.24729742 -0.8574692 0.2967847 0.09862054 -0.14227521 0.2609184 0.49407357
00000000: 992a 143e 69b5 e1be 5ebe b7be 8b98 2c3d
00000010: 1b3b b73b 0bdf 08bd b699 383e 55f6 433e
00000020: 7380 15bf e88a 343f 4eee 0bbe 859a d83e
00000030: 0e49 9e3e b65c 5abe de5e aa3e dbb9 83bd
00000040: baaa 30bf edd2 61bf 6dc8 e53d 80ec 8d3e
00000050: 076f b8be b33a cebe bb18 21bf 2711 d7be
00000060: c72b 23bd 7335 04bf cef4 9e3e 2f34 353f
00000070: d9e9 58be 1182 04bf 6a55 ad3b 2c76 24be
00000080: 525d b83e b764 0bbd 20b2 ecbe a3e9 c13e
00000090: ea12 1f3f 4349 15bd 69ac 3b3e 3cd8 1dbe
000000a0: c98a 48be 5ad0 073f a4f5 ad3e 5c43 b5be
000000b0: fe34 a13e 4cd8 3ebf 93b0 ae3d fcba 6b3e
000000c0: 5345 6f3e d8ce 54bf 6cc1 f7bd 08a1 1d3e
000000d0: 94a6 3cbf 81ba 2a3e dc88 613f b2fa 0cbf
000000e0: aacf 21bd 1651 62be f6fa f3be bf45 373f
000000f0: 5668 e1bd c032 cebe add6 57bf 8e0a 91bc
00000100: 0e5e 8d3f 1938 9cbb 4d55 75bb fa74 d03e
00000110: 1cc3 acbe ee8a 92be 145a b33e ef4c 4e3e
00000120: 4e8f a13e 8041 31bd 07c2 f43c 12fd 44bf
00000130: 6d4b d53d d33d 2ebe ce2d 3e3f 88e6 b23e
00000140: 032b df3e 521f 033f 21ad 5e3e 4c03 373f
00000150: d2b6 85be 457d cabc 97db 673e 0e8e 5e3d
00000160: f30d ac3e abe8 ba3e 9a31 603c 59e1 573f
00000170: 74ee 01bf 69d2 d83e 48a9 b13d 7312 1bbf
00000180: fc41 5fbf af65 433e b01c debc c712 ce3d
00000190: d6c6 9e3e 150a 42bf ba69 c73e 3528 15bf
000001a0: f5b5 36bd 478d 60be fba2 acbd a8e5 c23e
000001b0: 594f 5c3e 4980 0abe e47c e6bd f558 98bd
000001c0: 7edc 8abe c4da bbbd f827 e03d 049b 073f
000001d0: fd85 993e 77b9 513e c0e0 54bf c87f 323d
000001e0: b373 3cbf 289f 76be 1a7a f5be 986d a1bf
000001f0: a664 8d3d 5a77 a2be eba1 a03e ce40 953e
00000200: d66b a93e 777f 8d3d f069 823d 53aa c13e
00000210: ecaa 51bf ca2a 47be 4b30 273f 012b a5be
00000220: 609d 0f3a 1ff0 94be b8d0 903c 4cc4 3d3e
00000230: 0079 243d f221 133f 22b8 993c 8c60 bc3e
00000240: 2e4c be3e 79bf b9bd d0ab efbe 1acb d1be
00000250: bb07 46bf 0cdb d93c d1ee 443e 2364 9abe
00000260: 2da4 1e3c 35c7 6f3e 6ddd a93d 6567 aebd
00000270: 21cc 98bd c456 4f3e 2563 8abf a58a c5be
00000280: 0a25 2fbf ea8d 253e 273f 473e 2fb4 803e
00000290: 911f c73d fc4a 903e 6406 30bd 63ba 0fbf
000002a0: 9ed4 1dbe cee4 07be de7c 633c bacd dabd
000002b0: b3b9 e13d 7f4f 853c 7814 ff3e 2aa7 7fbe
000002c0: 3e56 af3d c8ec d63c f559 1e3e a92d ffbe
000002d0: 10fc 97bd ed56 04be 7700 92be ea81 103f
000002e0: 0020 ecbd e2dd 9f3e 9596 ff3c e3b9 94bf
000002f0: b520 363e 7e16 f23d 7533 973e a8b1 c5be
00000300: 46c0 8cbd 3162 b8bd e717 123f 3782 313e
00000310: eb5b fabe 2b66 dd3e 5269 e3bd 34e3 073e
00000320: dae1 88bf fea1 adba 2d30 903e 061a 1cbe
00000330: c949 8d3e a1d2 d13d 8e97 7f3d 48ec 233f
00000340: 82d1 06be cd59 00be 3012 f6bc 5972 c83d
00000350: 1a40 fe3d 8888 eabd c93f 583e 621e ba3d
00000360: f2b5 e9be 54a0 54be 7688 85be 87de c5be
00000370: a301 b7be 946f 5c3e 4fbf c6be 57bd 34be
00000380: e760 15be 56f2 e7be 66b5 c33e 4744 9ebe
00000390: 4cb9 e6be abaa 68bc e1db 883c 76bc b2bd
000003a0: 3956 04bf a0f4 84be c194 ca3e 7056 21bf
000003b0: 3aab 99bc 57f7 5f3e 46bf 1abf 24ce 223e
000003c0: cacb 273f 223c bfbe 4a19 94be e2c0 9c3e
000003d0: 2169 e4bd 220f f73e 5a47 653e 6608 1cbe
000003e0: 05f7 bd3e 893b 7dbe 1a83 5bbf 2af4 973e
000003f0: 91f9 c93d 98b0 11be 1997 853e 36f7 fc3e

fc2.bias f4 [300]
-0.22565225 -0.17738861 -0.41775334 0.014466075 -0.05340106 -0.13140666 -0.76387507 -0.12082186
-0.84722763 0.29212177 -0.20090301 -0.3671555 -0.08818592 0.12418393 0.15440963 0.07618489
-0.33444527 -0.11902174 -0.12263949 -0.38328725 -0.18662475 0.23656122 -0.40301004 -0.22598995
-0.17408805 -0.33278337 -0.45755976 -0.045883045 -0.029598288 -0.32492706 -0.58217764 -0.16712373
-0.2996538 -0.03209172 -0.015869956 0.13931493 -0.0011140299 0.055251658 -0.42844993 -0.6886036
-0.67233896 -0.09873601 -0.21058518 -0.39042228 -0.94132686 -0.70350814 -0.46058872 -0.10783085
-0.24513568 0.17055678 -0.46429038 -0.5562356 -0.5209115 -0.36711052 -0.05902158 -0.083972774
-0.11388798 -0.20814538 -0.39234263 -0.0018385113 -0.433581 -0.009906158 -0.30896813 -0.3177543
0.31771228 -0.7429273 -0.17128366 -0.1544643 -0.23263495 -0.22038196 -0.34512192 -0.028133258
-0.52866334 -0.17436002 -0.1570567 -0.104858205 0.11188263 -0.20452987 -0.012844076 -0.37639
-0.24201454 0.2907654 -0.2805146 -0.07276811 0.06949648 -0.09751181 -0.62151366 0.044329837
-0.004117403 -1.3336531 -0.7989686 -0.34558403 -0.3195687 0.45072153 -0.23575492 -0.11151278
-0.6307524 0.15083854 -0.056694906 -0.37688398 -0.5353684 -0.30934343 -0.37629637 0.17693838
-0.2916844 -0.7920131 -0.22140662 -0.190446 -0.16488846 -0.17981118 -0.09361427 -0.0976205
0.06772126 -0.121808015 -0.23939365 -0.19699761 0.08369155 -0.5760197 0.18824863 -0.35513854
0.15226944 -0.21016921 -0.770789 -0.80439764 0.3087424 -0.2258807 -0.0775139 -0.284262
0.004008627 -0.43443918 -0.054250922 -0.30247656 -0.28808722 0.031298935 -0.5608306 -0.067468576
-0.24850446 -0.15343727 -0.57938045 -0.08114851 -0.35905278 -0.70539165 -0.28639597 -0.28453082
-0.18457659 0.0023475667 -0.41493347 -0.15210585 -0.15626961 -0.51853275 -0.2386861 -0.6396198
-0.3002104 0.115161255 -0.30859444 -0.41348007 -0.2038452 -0.10800359 -0.66453266 -0.43013766
0.018053647 -0.30107218 -0.25539914 -0.2976624 -0.09894192 -0.25525525 -0.4166243 -0.14386326
-0.41551778 -0.4577228 -0.11740321 0.15192644 0.0379515 -0.34823146 0.01388497 -0.22125453
-0.7071854 -0.06332944 -0.18878075 -1.359477 -0.12964134 -0.27282736 -0.07309084 -0.40226242
0.07031445 -0.2158728 -0.738059 -0.1372366 0.056172222 -0.7130615 -0.3014861 -0.28715256
-0.44090196 -0.45950413 -0.20089932 -0.2966162 -0.61336523 -0.12174543 0.006250573 -0.6064675
-0.28961352 -0.5010994 -0.11163158 -0.105225585 -0.24850886 -0.12603968 0.035696995 -0.10682711
0.030949887 0.08209359 -0.12379251 -0.14343329 -0.55424744 0.06324458 -0.39810547 -0.67510164
0.27997822 -0.5703137 0.1752786 -0.42301914 -0.11379448 -0.40280682 -0.48748714 -0.40550587
-0.6330647 0.15405609 -0.2755909 -0.6149317 -0.28640038 0.06260097 -0.8786124 0.058902867
-0.3049921 -0.84779316 -0.45923337 -0.34306952 -0.21769631 -0.24230517 -0.7242645 0.07322323
0.028214166 -0.5684684 -0.08530468 -0.08046079 -0.373148 -0.18863969 -0.16717474 -0.86839306
-0.14361154 0.18622153 -0.4071314 -0.5530358 -0.11448085 0.06286642 -0.04763667 0.1321106
00000000: 6211 67be 5ca5 35be c4e3 d5be 1e03 6d3c
00000010: 12bb 5abd 788f 06be 518d 43bf 7471 f7bd
00000020: e9e3 58bf fc90 953e 85b9 4dbe cefb bbbe
00000030: d29a b4bd 2554 fe3d 8f1d 1e3e d306 9c3d
00000040: 693c abbe acc1 f3bd 6a2a fbbd 3a3e c4be
00000050: 8f1a 3fbe 1b3d 723e 5557 cebe e969 67be
00000060: 2344 32be 9562 aabe 4645 eabe dcef 3bbd
00000070: 1c78 f2bc d75c a6be 9809 15bf 7c22 2bbe
00000080: 396c 99be 9b72 03bd b601 82bc 93a8 0e3e
00000090: a404 92ba 904f 623d ca5d dbbe 5348 30bf
000000a0: 681e 2cbf 1b36 cabd a4a3 57be 6ee5 c7be
000000b0: ccfa 70bf 1c19 34bf 49d2 ebbe 6cd6 dcbd
000000c0: d904 7bbe 70a6 2e3e 78b7 edbe 7565 0ebf
000000d0: 755a 05bf e9f5 bbbe 9dc0 71bd ebf9 abbd
000000e0: 1a3e e9bd 1024 55be 22e1 c8be 34fa f0ba
000000f0: 54fe ddbe 704d 22bc 1231 9ebe b1b0 a2be
00000100: 2fab a23e 7c30 3ebf fc64 2fbe e42b 1ebe
00000110: db37 6ebe cfab 61be d2b3 b0be b877 e6bc
00000120: 7b56 07bf 6f8b 32be 79d3 20be e6bf d6bd
00000130: b822 e53d 4770 51be f66f 52bc 31b6 c0be
00000140: a9d2 77be 34df 943e 9c9f 8fbe 7207 95bd
00000150: 2c54 8e3d 46b4 c7bd 851b 1fbf 3493 353d
00000160: 48eb 86bb 25b5 aabf 3589 4cbf 64f0 b0be
00000170: 829e a3be f9c4 e63e bd69 71be d060 e4bd
00000180: fd78 21bf 6b75 1a3e eb38 68bd f0f6 c0be
00000190: e70d 09bf 4362 9ebe eba9 c0be 562f 353e
000001a0: a857 95be 5fc1 4abf 6bb8 62be 4704 43be
000001b0: 85d8 28be 6c20 38be d7b8 bfbd 42ed c7bd
000001c0: 72b1 8a3d 7b76 f9bd 9c23 75be beb9 49be
000001d0: 7a66 ab3d 0776 13bf 40c4 403e b8d4 b5be
000001e0: 85ec 1b3e 9936 57be 6e52 45bf 01ed 4dbf
000001f0: 7c13 9e3e 454d 67be 9cbf 9ebd ca8a 91be
00000200: cd5a 833b d06e debe 3736 5ebd 35de 9abe
00000210: 2b80 93be 5033 003d 9892 0fbf f72c 8abd
00000220: f477 7ebe a91e 1dbe 4752 14bf 3131 a6bd
00000230: c4d5 b7be 8c94 34bf 7ea2 92be 06ae 91be
00000240: a501 3dbe a2d9 193b 2972 d4be a3c1 1bbe
00000250: 2405 20be 90be 04bf 216a 74be 20be 23bf
00000260: 2db5 99be aad9 eb3d 1700 9ebe a9b3 d3be
00000270: ccbc 50be fc30 ddbd d01e 2abf 013b dcbe
00000280: 3ee5 933c 2226 9abe adc3 82be 3567 98be
00000290: 10a2 cabd d1b0 82be c84f d5be e450 13be
000002a0: bfbe d4be a55a eabe 1871 f0bd 9b92 1b3e
000002b0: 0873 1b3d 654b b2be c97d 633c 8c90 62be
000002c0: 1a0a 35bf deb2 81bd be4f 41be 5803 aebf
000002d0: b3c0 04be 07b0 8bbe a6b0 95bd 57f5 cdbe
000002e0: 0601 903d c20d 5dbe 6ff1 3cbf c087 0cbe
000002f0: d814 663d 338b 36bf 635c 9abe a905 93be
00000300: e7bd e1be 2044 ebbe 8db8 4dbe 14de 97be
00000310: 8105 1dbf ab55 f9bd 9bd1 cc3b 7441 1bbf
00000320: 3948 94be 0d48 00bf 199f e4bd 8380 d7bd
00000330: 1b79 7ebe 8c10 01be 0337 123d 2cc8 dabd
00000340: 9e8a fd3c af20 a83d ed86 fdbd 2de0 12be
00000350: 29e3 0dbf 6086 813d 7bd4 cbbe 76d3 2cbf
00000360: 4e59 8f3e 1400 12bf 3c7c 333e f795 d8be
00000370: 150d e9bd b23c cebe ea97 f9be 779e cfbe
00000380: 8710 22bf e1c0 1d3e 401a 8dbe 2a6c 1dbf
00000390: 12a3 92be f034 803d beec 60bf 2244 713d
000003a0: ed27 9cbe f908 59bf a320 ebbe cfa6 afbe
000003b0: c8eb 5ebe d91e 78be 6669 39bf 10f6 953d
000003c0: 6521 e73c 2587 11bf 38b4 aebd a0c8 a4bd
000003d0: 410d bfbe c32a 41be db2f 2bbe 024f 5ebf
000003e0: e70e 13be dbb0 3e3e 8773 d0be c193 0dbf
000003f0: f074 eabd 1cc0 803d ab1e 43bd 0048 073e

fc3.weight f4 [4, 300]
0.55627924 0.45423874 -0.38918707 0.05356193 0.017824335 0.008768631 -1.0903288 -0.45586005
-0.50399387 0.09293029 0.054763224 -0.6095783 0.058599982 -0.13420817 -0.28296283 0.11823932
0.051115647 0.17240004 -0.24831697 0.0829388 0.018864635 -0.34471107 0.09896371 0.023727134
-0.15650964 0.24849357 0.028438276 -0.09263754 -0.002013978 -0.44766667 0.23983905 -0.79934037
-0.0053845095 0.052836712 -0.036406275 0.6494119 0.24335927 0.078649804 0.0036064612 -0.18025361
-0.9343017 -0.43758854 0.111987844 0.15139814 -0.12627035 -0.30529097 -0.13046779 -0.2798213
-0.5477129 0.015225981 0.4277573 -0.3302723 -0.14467633 0.18418056 -0.4478765 -0.19280572
0.06450071 -0.4149085 -0.09849042 -0.071128964 -0.115856305 0.50942475 -0.0637655 0.04957544
0.10427524 -0.4398061 -0.39315578 0.11865943 -0.021144163 -0.0516327 0.1352004 0.08787713
0.009678626 -0.17627905 0.19729304 -0.5404704 -0.5224659 0.13991979 0.043138295 0.34795228
0.25822353 0.4811866 -0.32320866 0.23986901 0.39674193 -0.18252416 -0.12203022 0.10055586
0.08155011 0.32002902 0.08214128 -0.31616035 -0.7213182 -0.12654358 -0.5016603 -0.13194051
0.29856893 -0.42523324 -0.1105885 -0.33716294 -0.32107037 0.32721254 -0.05736242 -0.2009336
-0.28029424 -0.08758025 -0.16445014 0.01622398 -0.023562886 -0.075556815 -0.4094982 -0.04300107
0.14610872 -0.23338908 -0.09999951 -0.98740256 -0.20099539 -0.93883073 0.1800499 0.022539936
0.058695816 -0.17244564 -0.49709955 0.17920016 0.60211587 0.23317161 0.013315237 -0.079541594
-0.034252908 -0.30152455 0.65483874 -0.06918182 -0.0046353037 0.034484155 0.26296362 -0.4227709
0.8267994 -0.07596873 0.81208265 0.025215551 -0.07048883 0.66547793 0.017892579 0.010870385
0.008294936 -0.14893317 0.08825564 0.35788047 0.37270468 1.0062059 -0.894056 -1.0253472
0.92987 0.045328964 0.19874352 0.059858143 -0.6645276 -0.5866428 -0.12648116 0.0027912275
0.28802115 -0.13246642 0.030976871 0.07491753 0.4374315 -0.13072139 0.58932054 0.017651765
0.34483424 -0.3841542 -0.55894905 -0.38048223 -0.060220953 -0.436258 0.9750359 -1.0154918
-0.7796282 -0.06624101 0.1632145 -0.11938827 -0.14037213 -0.98966604 0.043296114 0.19153132
-0.13115223 -0.55062044 -0.57799476 0.101959735 0.10337441 -0.46520516 -0.14250275 -0.31362888
-0.19950207 0.23550771 0.39740974 0.113375455 -0.33075356 -0.21058102 -0.5648445 -0.15377004
-0.41937184 0.15329216 0.5220561 -0.09387717 0.5092954 0.32360795 -0.09681732 0.08679988
0.05194631 0.34710044 0.41833276 0.021340478 -0.55753297 -0.36065874 0.05430836 -1.1432517
-0.15841013 0.2957415 -0.003378932 0.051194116 0.2050064 -0.04882828 -0.1406023 -0.09780852
0.23330219 0.014215358 0.36769253 0.13834365 0.07900405 -0.14061852 0.24726947 0.19723265
-0.06263246 -0.2986572 -0.017718637 0.20689526 0.32076412 0.1356593 0.13364471 0.06902664
0.10406169 -0.2791437 -0.0065028984 -0.09598548 -0.1144238 0.031275667 0.782707 0.05937581
-0.61284244 -0.24969302 0.15192987 -0.3199917 0.32596523 -0.4464491 0.1555745 -0.13536125
00000000: 5168 0e3f fb91 e83e 8743 c7be c163 5b3d
00000010: 5704 923c 4eaa 0f3c e58f 8bbf 7d66 e9be
00000020: be05 01bf 3c52 be3d 674f 603d 530d 1cbf
00000030: 8906 703d de6d 09be 81e0 90be 7527 f23d
00000040: a45e 513d a389 303e ce46 7ebe d1db a93d
00000050: 028a 9a3c f87d b0be 7cad ca3d 685f c23c
00000060: 1044 20be 1975 7e3e 63f7 e83c c0b8 bdbd
00000070: f2fc 03bb 9134 e5be 5e98 753e 92a1 4cbf
00000080: 8a70 b0bb 4f6b 583d bf1e 15bd dc3f 263f
00000090: 2c33 793e 2613 a13d 615a 6c3b 6794 38be
000000a0: 652e 6fbf 9b0b e0be e259 e53d 1d08 1b3e
000000b0: 044d 01be 194f 9cbe 5999 05be bd44 8fbe
000000c0: ea36 0cbf 6576 793c 0103 db3e 7319 a9be
000000d0: 0826 14be d499 3c3e 1250 e5be dd6e 45be
000000e0: f318 843d e36e d4be 58b5 c9bd 10ac 91bd
000000f0: 1246 edbd a969 023f 7d97 82bd 9e0f 4b3d
00000100: 428e d53d 442e e1be b74b c9be b703 f33d
00000110: 8636 adbc cf7c 53bd f971 0a3e edf8 b33d
00000120: 1a93 1e3c 7f82 34be 3007 4a3e 455c 0abf
00000130: 53c0 05bf 2247 0f3e c8b1 303d cd26 b23e
00000140: e035 843e 175e f63e 9b7b a5be 39a0 753e
00000150: c221 cb3e 9de7 3abe fbea f9bd 3bf0 cd3d
00000160: be03 a73d d8da a33e b039 a83d c5df a1be
00000170: 4fa8 38bf a494 01be cf6c 00bf 6a1b 07be
00000180: 07de 983e 2cb8 d9be 397c e2bd 9fa0 acbe
00000190: 5663 a4be 6788 a73e dbf4 6abd 8ac1 4dbe
000001a0: ba82 8fbe 465d b3bd 9e65 28be 27e8 843c
000001b0: f406 c1bc 88bd 9abd c0a9 d1be e421 30bd
000001c0: 869d 153e 8cfd 6ebe 8bcc ccbd 6ac6 7cbf
000001d0: bcd1 4dbe 3657 70bf 005f 383e aca5 b83c
000001e0: 066b 703d 9795 30be d583 febe 3f80 373e
000001f0: 4424 1a3f 8ac4 6e3e 2728 5a3c b4e6 a2bd
00000200: c74c 0cbd 6d61 9abe 83a3 273f 33af 8dbd
00000210: bfe3 97bb 423f 0d3d 2ba3 863e 6d75 d8be
00000220: 20a9 533f 7e95 9bbd a6e4 4f3f d890 ce3c
00000230: 735c 90bd c35c 2a3f 7593 923c b319 323c
00000240: 7ce7 073c f081 18be 5fbf b43d 1c3c b73e
00000250: 26d3 be3e 5bcb 803f dbe0 64bf 943e 83bf
00000260: f60b 6e3f ddaa 393d 6c83 4b3e d02d 753d
00000270: 7b1e 2abf 392e 16bf 4784 01be 07ed 363b
00000280: 8277 933e 47a5 07be 35c3 fd3c 5d6e 993d
00000290: 06f7 df3e d4db 05be b6dd 163f 6f9a 903c
000002a0: 1d8e b03e dcaf c4be 4917 0fbf 91ce c2be
000002b0: 3faa 76bd 355d dfbe f49b 793f a3fb 81bf
000002c0: b795 47bf 5ea9 87bd b421 273e d681 f4bd
000002d0: b6bd 0fbe c15a 7dbf 4457 313d c920 443e
000002e0: c54c 06be 76f5 0cbf 77f7 13bf 44d0 d03d
000002f0: f6b5 d33d 5f2f eebe 3eec 11be f793 a0be
00000300: 454a 4cbe ef28 713e 4a79 cb3e 6431 e83d
00000310: 8858 a9be 8da2 57be a699 10bf e575 1dbe
00000320: e8b7 d6be 9ff8 1c3e 78a5 053f ac42 c0bd
00000330: 2f61 023f f1af a53e 2948 c6bd 23c4 b13d
00000340: a7c5 543d 26b7 b13e b62f d63e 3ad2 ae3c
00000350: 7bba 0ebf 43a8 b8be 7172 5e3d 1256 92bf
00000360: 4436 22be 6e6b 973e 1271 5dbb ecb0 513d
00000370: 33ed 513e 2a00 48bd 0dfa 0fbe d54f c8bd
00000380: c5e6 6e3e 88e7 683c 3242 bc3e f5a9 0d3e
00000390: e0cc a13d 4dfe 0fbe 3534 7d3e 5bf7 493e
000003a0: 7245 80bd 99e9 98be ad26 91bc 5adc 533e
000003b0: 323b a43e 46ea 0a3e 29da 083e d75d 8d3d
000003c0: 4c1e d53d eceb 8ebe 4416 d5bb 0994 c4bd
000003d0: 0657 eabd ea1a 003d 7c5f 483f 0d34 733d
000003e0: 3ee3 1cbf 87af 7fbe 8193 1b3e f4d5 a3be
000003f0: eae4 a63e fa94 e4be ec4e 1f3e 249c 0abe

fc3.bias f4 [4]
0.10059527 0.07240431 0.1596684 0.0787696
00000000: e504 ce3d b648 943d 1d80 233e f551 a13d
